models/exported/actuator_model.pth (torch, 354822 bytes, 31 tensors)

model.layers.0.weight f4 [64, 6]
000000 fe c9 a3 3e fd 9d b0 3e b9 e6 a4 bd af 4c c4 3e
       0.31990045 0.34495535 -0.08051819 0.38339755
000010 7f 0e cb bd bb 9d 8d 3d 1d 73 4f be d1 7c 73 3e
       -0.09914874 0.0691485 -0.20258756 0.23778082
000020 93 59 b8 3e 80 d7 98 be a7 ab b8 3e 72 d0 91 3d
       0.3600584 -0.29851913 0.3606846 0.07119836
000030 d8 71 a2 3e a7 4d 9b 3d d6 6b 55 3e 6c 63 29 bd
       0.3172748 0.075831704 0.20841917 -0.04135458
000040 c5 8f 9e 3e 22 cc 70 3d 51 7a 3e be 63 95 df 3d
       0.30969062 0.058788426 -0.18601348 0.10917165
000050 50 b3 45 be 0d 23 3b bd 0b a0 2f be b3 9c 87 3e
       -0.19306684 -0.045687724 -0.17150895 0.2648674
000060 0f 98 ad be 28 59 46 be 99 e7 e1 bd ab 70 78 be
       -0.33905074 -0.19369948 -0.11030502 -0.2426173
000070 e2 79 63 3d 76 14 c5 be e3 7d c1 3e 8f 16 ac be
       0.05553616 -0.38492173 0.37791356 -0.3361096
000080 5e 0a a2 3e c8 0e 90 3d d0 1c 17 be b5 16 72 3e
       0.31648535 0.07034069 -0.14757085 0.23641475
000090 67 25 61 3d aa fe a4 3e 0c d1 2a 3d 2e 8e 03 be
       0.05496731 0.32225543 0.04170327 -0.12847206
0000a0 c1 7d fc 3d fd 5a c6 bd 61 95 3c 3e 58 b8 c2 3e
       0.12328673 -0.096853234 0.18416359 0.38031268
0000b0 04 f4 77 3e b0 88 31 be 4b fc 78 3e 71 eb 74 3d
       0.24214178 -0.17337298 0.24314992 0.059794847
0000c0 bf d8 53 3e dc c5 7b be d5 70 c8 be bd 64 12 be
       0.20688151 -0.24587196 -0.39148584 -0.14296241
0000d0 28 52 a0 be 92 dc ad 3e 57 cb f5 3d 83 8e 30 3e
       -0.3131268 0.33957344 0.120016746 0.17241864
0000e0 ae db ff 3d 2a c6 44 bc 65 79 a1 3e 4e b9 96 be
       0.124930725 -0.012010137 0.3153793 -0.2943825
0000f0 7d 11 d8 3c be 7c 8b be c7 a8 11 3e 1c 15 02 be
       0.026375527 -0.27243608 0.1422454 -0.12703365
000100 c5 96 01 3e 6b b5 ac bd 28 ea b1 3e 7e cc 69 be
       0.1265517 -0.0843304 0.3474896 -0.22831914
000110 de a9 69 be f0 f2 62 be 14 9a c0 3e 7b 4f 0a 3e
       -0.22818705 -0.22162986 0.37617552 0.13506882
000120 8b 2c d0 3e 45 c1 a2 be dd 9b c9 be 9e 45 9f be
       0.40658984 -0.31788078 -0.39376727 -0.311078
000130 98 9c 94 be 2c 12 1f 3e d0 0c 27 3e 2c 86 b7 3e
       -0.29025722 0.15534276 0.16313481 0.35844553
000140 ad 34 4b be a1 53 88 be 67 3c 51 3e 14 5d 3c be
       -0.19844313 -0.26626304 0.20433198 -0.18394881
000150 41 59 88 3e be f4 9e bd c3 6e 81 3e a8 3f 9d be
       0.26630595 -0.077615246 0.25279817 -0.30712628
000160 1e 26 6c be da 23 c9 3d 0c 7e a4 3d 61 ef d1 bd
       -0.23061416 0.09821291 0.08031854 -0.10250736
000170 95 d7 81 3e ea 8c 95 3e c4 e7 9a be d6 f8 52 be
       0.2535979 0.2920907 -0.30254948 -0.20602736
000180 94 9d ca 3e 48 74 ec bd e1 64 0e be 1a e4 c8 be
       0.39573348 -0.115456164 -0.1390567 -0.39236528
000190 33 7c 83 be 38 97 a7 3d db df 6d bd 10 0f 9a be
       -0.25680694 0.081831396 -0.058074813 -0.30089617
0001a0 30 b2 cb 3c 42 48 8a be 43 d4 b6 be 68 8a 5c be
       0.02486524 -0.27008253 -0.35708818 -0.21537173
0001b0 b9 1b bb be 7d 3b 89 be a5 b5 d4 3e b9 55 a0 3d
       -0.36544588 -0.26803198 0.41544834 0.0782885
0001c0 d2 14 08 3e 0f 38 be be 16 d4 86 be 30 06 02 be
       0.13289192 -0.37152144 -0.26333684 -0.12697673
0001d0 39 b5 90 3d 72 3f b0 be 02 90 31 be cf 76 7f be
       0.070658155 -0.34423405 -0.17340091 -0.24947666
0001e0 dc 89 25 bc 01 3b 26 be fa aa 11 bd dc 2e 8f be
       -0.010103669 -0.16233446 -0.035563447 -0.27965438
0001f0 57 07 92 be d8 19 6d be 58 d8 12 be d2 c0 a4 be
       -0.28521225 -0.2315439 -0.14340341 -0.3217836
000200 bf 5f b0 3e aa c8 8f bd 20 58 af 3e 27 aa 0a 3e
       0.34448048 -0.070206955 0.34246922 0.1354147
000210 eb 72 b2 be 9b 13 93 3e 7e 49 ba bd 2b 28 0d be
       -0.348533 0.28725895 -0.09096049 -0.13784854
000220 43 3e b5 be 11 ad c8 be ac 44 e5 3d d1 37 ba bd
       -0.35399064 -0.3919454 0.11194739 -0.090926774
000230 6f d8 2a 3e 78 42 a8 be 2e 8f a3 3e 92 db 90 be
       0.16684125 -0.32863212 0.31945175 -0.2829252
000240 72 28 a8 bd dc dd 9a 3d 5e cd 61 3e 6f e9 ae 3e
       -0.08210839 0.075618476 0.22050998 0.3416247
000250 15 5c c5 3e 75 af 9e be 61 14 d1 3d b9 0e 37 be
       0.38546816 -0.30993238 0.10208965 -0.1787671
000260 f0 34 3c bd 98 12 9f be 8e f0 c1 3e b1 a4 95 be
       -0.045948923 -0.31068873 0.3787884 -0.29227212
000270 09 6b 5d 3e 16 2a 13 3e c1 83 02 3e b0 d8 65 be
       0.21622862 0.14371523 0.12745573 -0.22445941
000280 16 6b bf 3e be 8c b3 3d 9f 2b 66 3d b1 2c b7 be
       0.37386388 0.08767079 0.056193944 -0.35776284
000290 ed c7 38 3e 30 15 7d bd c6 6b 45 be 0d 1d af 3e
       0.18045016 -0.061787784 -0.19279394 0.3420185
0002a0 5c 7a c1 3d 55 02 68 be e1 73 5a be 9d bf e3 bc
       0.09447166 -0.2265714 -0.21333267 -0.02780133
0002b0 80 11 68 3e ba 18 d6 bd c1 88 60 be 6a 59 04 be
       0.22662926 -0.10453935 -0.21927167 -0.12924734
0002c0 21 e3 a1 be 03 f9 05 3e f2 e1 98 3e a5 6b cd be
       -0.31618598 0.13083272 0.29859883 -0.4012119
0002d0 b0 73 c1 3d 94 b9 57 3e 37 1a 88 3d bf 49 21 be
       0.09445894 0.21066886 0.06645625 -0.15750788
0002e0 86 1f 64 3e 94 97 51 3e 7c e9 14 3e 2e 4d 93 bd
       0.2227765 0.20467979 0.14542192 -0.07192455
0002f0 7e 7b ef bd 74 06 4f 3d fd 5a a5 bd 72 88 e5 bd
       -0.11693476 0.050543264 -0.08073995 -0.112076655
000300 a1 f6 87 3e 62 e1 b2 3e 49 53 1a bd ba 59 b9 bd
       0.2655535 0.34937578 -0.037677083 -0.09050317
000310 45 62 0a bc 79 9a ee bc 34 a8 dc 3d 33 9a 03 3e
       -0.008446281 -0.029126393 0.1077427 0.12851791
000320 e0 52 ba be 40 c8 0e be 02 15 b8 3e 23 41 11 3e
       -0.36391354 -0.13943577 0.35953528 0.14185004
000330 25 6a 04 bb 10 dd 6a be 1f ca 6f be f1 30 b6 be
       -0.0020204869 -0.22935891 -0.23416947 -0.35584214
000340 e9 3a 20 be 0d 0c e5 3d a7 c5 87 3e 12 dd 43 3e
       -0.15647472 0.11183939 0.26517984 0.191273
000350 8c f3 b7 be a3 b1 77 be fa 41 a1 bd 52 88 c5 3e
       -0.35928 -0.24188857 -0.07873912 0.38580567
000360 88 42 ad 3d 1d e1 a6 bd 89 10 2f 3e ad 4f 21 be
       0.084599555 -0.08148406 0.17096151 -0.1575305
000370 07 5c 93 be 72 b9 8b 3e 85 1c 31 be 72 af 8e bd
       -0.2878115 0.2728992 -0.17296036 -0.06967057
000380 e5 07 c5 be 65 66 8e 3e 02 a2 a7 3e 53 17 09 3e
       -0.38482586 0.27812496 0.3274079 0.13387804
000390 1c 64 8c be fb 70 c7 be b1 94 a7 be 07 9f 9a 3e
       -0.27420127 -0.38953385 -0.3273063 0.30199453
0003a0 43 0c 56 3e 51 03 a9 3e 6d 4e 63 3e fa 54 e0 3d
       0.20903115 0.33010343 0.22197886 0.10953708
0003b0 a1 7e 10 3c 37 25 9b be bb 95 b4 be 68 c3 c2 be
       0.008819253 -0.3030183 -0.35270485 -0.38039708
0003c0 75 78 2d 3e dd 33 54 be f3 ed ac bd 0b 46 6e be
       0.16940482 -0.2072291 -0.08443823 -0.23268907
0003d0 42 7e c1 bd b8 31 89 be fd 87 8b be 7b 95 04 3e
       -0.0944791 -0.26795745 -0.27252188 0.12947647
0003e0 05 bc e7 bd a8 8b 8a 3e aa 69 17 be 2a 7f 8f be
       -0.11315159 0.27059674 -0.14786401 -0.28026706
0003f0 be b2 8a bd 95 99 45 be 04 66 ff bd 0a f4 c2 be
       -0.067723736 -0.19296868 -0.1247063 -0.38076812

model.layers.0.bias f4 [64]
000000 ff 14 22 3a 4e a5 b5 3e 49 cd a6 be 05 8e 18 be
       0.0006182938 0.3547768 -0.32578495 -0.14897926
000010 be ba 5e 3e a0 60 c1 bd c5 cd a4 bd 6e 1f 28 be
       0.21750924 -0.09442258 -0.0804706 -0.1641824
000020 b6 30 87 3e fe ad 40 3e da 97 06 3e 54 b6 5b be
       0.2640435 0.18816373 0.13143864 -0.21456271
000030 2d dd a0 be 1f b8 ee 3c b2 d6 00 3e 22 63 28 be
       -0.31418744 0.02914053 0.125819 -0.16444066
000040 93 e0 ce bd 70 fe 80 3e 52 ec 45 3d 42 47 22 3c
       -0.10101428 0.2519412 0.048321076 0.0099046845
000050 46 83 bb bd 72 1f b2 be ef 0f b9 be e2 d4 2d be
       -0.09155898 -0.34789616 -0.3614497 -0.1697574
000060 f3 35 4c be 9b bd fa 3d 33 13 e1 bd 6a 21 18 be
       -0.19942455 0.122431956 -0.1098999 -0.14856496
000070 57 84 bd 3e 1d 0c 19 3e b1 69 8f 3e 40 81 46 be
       0.3701503 0.14946027 0.28010324 -0.19385242
000080 19 01 2d be a1 5d 0e 3e 97 85 8d be 53 b7 82 be
       -0.1689495 0.13902904 -0.27640983 -0.2553049
000090 68 3b 71 bc b5 da 11 be 3e 08 92 be 16 19 65 3e
       -0.014723636 -0.14243586 -0.28521913 0.22372851
0000a0 fa af a3 3e 6e ae 8b 3d 8c b2 83 bd cf cb b4 be
       0.31970197 0.06820379 -0.064305395 -0.35311744
0000b0 07 51 10 be 4c a3 c4 3d b1 62 45 3e 3b b9 3a bd
       -0.1409341 0.09601459 0.19275929 -0.045586806
0000c0 8d 9f 1e be 35 30 64 3e 37 2c 9b be 11 ea 6b 3e
       -0.15490551 0.22284015 -0.3030717 0.23038508
0000d0 af eb 23 be 27 15 3b 3c 72 7a b2 bd a5 29 3f 3d
       -0.16007875 0.011418617 -0.08714761 0.046670575
0000e0 e6 27 fe bd a7 51 92 3e 84 9d 72 bb e6 61 9b 3e
       -0.12409954 0.2857792 -0.0037020156 0.30348128
0000f0 24 e6 bd 3e 65 2b 3f be 4e 52 93 be ca 38 a2 3e
       0.37089646 -0.18668897 -0.2877373 0.31683952

model.layers.1.weight f4 [128, 64]
000000 42 18 e8 3d b6 13 e3 bd ab 33 d0 bc 57 5f d9 bd
       0.11332752 -0.11087744 -0.025415262 -0.10613888
000010 83 a6 ed bd 05 bd 24 3d e1 00 aa 3c 6d 51 41 3c
       -0.11604025 0.040219326 0.020752372 0.011799199
000020 4f 07 93 bc 64 35 d1 3d dc b7 8d 3b a9 51 b7 bd
       -0.017947821 0.102152616 0.0043248963 -0.08951122
000030 15 ea 20 3c 46 1a 88 3c 3e 55 6f 3d b8 42 9c bd
       0.0098214345 0.01661409 0.058430903 -0.07629913
000040 b2 dc 7a 3d 9f 2c 49 bd d9 92 ee bd 7d fb 6a bd
       0.061245628 -0.04911482 -0.11649103 -0.057368744
000050 93 b7 05 3e 59 1b ba 3d b0 a1 f1 3d 1f 65 76 3d
       0.1305831 0.090872474 0.117984176 0.06015503
000060 71 e0 a7 3d 3f 38 01 bd 02 13 a8 bd 9b d4 a8 3d
       0.08197106 -0.03154778 -0.082067505 0.08243676
000070 8d 21 9f bd 79 55 ca bd 0b 69 51 bd 44 dc 00 3d
       -0.07770071 -0.09879584 -0.051125567 0.03146006
000080 57 bf 57 3d 4a 88 86 bd c3 d0 67 bd f0 86 05 3d
       0.05267271 -0.06568964 -0.056595575 0.03259939
000090 bb 3b 60 bd 88 27 c4 bd 18 1d 64 3d 51 a9 91 bc
       -0.054744463 -0.095778525 0.05569181 -0.017780932
0000a0 59 75 d3 3d fc bd 00 3e c7 bf c2 3c 76 de ec 3c
       0.10325117 0.12572473 0.023773087 0.028914671
0000b0 55 74 8f 3c 7e 58 68 bc c9 e3 2a bc 09 79 96 3c
       0.017511526 -0.014181254 -0.010430285 0.018368261
0000c0 a5 67 6b 3d d6 09 00 3e 73 c5 60 bc ab df 90 bd
       0.05747189 0.12503752 -0.013718951 -0.07073911
0000d0 a7 1a 24 bd 62 b8 92 bd 52 0d 08 3d ed 31 a5 3d
       -0.04006448 -0.071640745 0.03321583 0.08066163
0000e0 d2 a3 b4 3d 93 9d 36 3d 9d 17 cf bd f5 88 4a bd
       0.08820309 0.04458387 -0.10111926 -0.04944702
0000f0 d5 e3 39 bd 70 ea 29 bd 15 ff 6a 3b 35 ff fc bd
       -0.045383293 -0.041483343 0.0035857607 -0.123533644
000100 e1 84 40 3d af 52 ca bd 1d 84 a8 bd 3d 07 ca bd
       0.047001723 -0.09879052 -0.082283236 -0.09864662
000110 f1 59 cc 3d b8 2a e9 bd 66 56 b2 3d 6d 47 eb bb
       0.099780925 -0.11385101 0.087078854 -0.0071801455
000120 c1 ef 20 bc 42 ee 90 3d aa a1 74 bc 27 eb 99 3d
       -0.009822787 0.07076694 -0.014931122 0.07515555
000130 4e fc bc 3d fa e1 ec bd ea 98 50 3d 31 83 02 3d
       0.09227811 -0.11566539 0.05092708 0.031863395
000140 b9 ff f1 3c d7 6b 88 3c bf 8e bd 3c c6 fb 73 bd
       0.029540883 0.016652985 0.023139356 -0.05956628
000150 e5 c6 81 bc 81 18 ec 3d 44 26 ac 3d 2b 17 47 bc
       -0.01584191 0.11528111 0.08405736 -0.01215152
000160 6d f6 fc bd ef cf 07 ba 7a c8 b3 bd 11 9d de 3d
       -0.123516895 -0.0005180826 -0.08778472 0.10869802
000170 d6 05 a0 bd a9 6e 9d bc e8 9f 04 bd a4 fd b7 3c
       -0.07813613 -0.019217806 -0.03237906 0.022459812
000180 44 cb e2 3d b6 84 0d 3c a7 e0 9c 3d 6b 8c c1 3d
       0.11073926 0.008637598 0.076600365 0.09450611
000190 d9 bc db 3d d4 5f 3b bd e7 53 18 bd 04 4a 85 3d
       0.10729379 -0.045745686 -0.03718939 0.06508258
0001a0 96 f5 28 bd 1a 5f 5d 3d 63 76 1b bd 36 11 b5 bd
       -0.041249834 0.054045774 -0.0379547 -0.08841173
0001b0 b7 fe 1c 3d a6 9e 87 3c 2f c8 50 3d 5a 9e 05 3e
       0.038328853 0.016555142 0.05097216 0.13048688
0001c0 5b 88 bc 3d 61 3e f6 3d 31 58 6f 3c 01 3b e4 bd
       0.09205695 0.120236166 0.014608429 -0.111440666
0001d0 b2 41 c2 bd ed 54 a8 bd f8 9b d3 bd 45 9e 95 bd
       -0.09485187 -0.08219323 -0.10332483 -0.07305578
0001e0 b6 32 f3 bd 4a 99 f2 bd c9 be 9f bd c1 63 f0 bd
       -0.11874907 -0.11845644 -0.07800061 -0.117377765
0001f0 e8 3c a5 bd 34 3b 32 3d d6 c3 bf 3d e1 1e 47 bd
       -0.080682576 0.04351349 0.093635246 -0.048613433
000200 3a 19 39 bd 98 45 99 3d da 78 78 bd c7 ab 7d bd
       -0.045190074 0.07483977 -0.060662128 -0.061931398
000210 2f 10 97 3d fe ae e3 bd ab 99 8e 3c e4 19 e8 3d
       0.07376134 -0.111173615 0.017407259 0.11333063
000220 e9 1c 3e 3c 32 95 25 3d fa 87 84 bd 43 e1 1e 3b
       0.011603572 0.040425487 -0.06471248 0.0024243153
000230 05 d6 5e bb 9b eb 31 3d cd 9b 0f 3d d4 a9 c1 3d
       -0.0034002077 0.04343758 0.035060693 0.0945622
000240 e5 28 d9 bd 03 14 4e bc 59 87 78 bd df df da bd
       -0.10603503 -0.012578013 -0.060675953 -0.10687231
000250 48 cf c5 bc 8e fa d0 bd e4 33 96 3d 27 70 9c 3c
       -0.024146691 -0.102040395 0.07334116 0.019096447
000260 cb 51 80 bd 71 d9 96 3d 24 35 ea bd fd 0b 36 bd
       -0.06265601 0.073656924 -0.11435917 -0.044445027
000270 20 76 90 bc 8c a8 c5 bd 6e 71 9c bd 1e f6 01 bd
       -0.017634451 -0.096512884 -0.076388225 -0.031728856
000280 fb 2a b9 3d 7e f9 00 3e 07 5e 8e 3d 1b 1f 96 bd
       0.09041401 0.12595174 0.06951528 -0.07330152
000290 52 46 b3 bd fd 28 ec 3d aa ab 2e 3d 18 75 f7 bb
       -0.08753647 0.115312554 0.04264418 -0.0075518005
0002a0 35 e4 97 3c ea 92 e6 bd 86 0c f1 bc 4f d8 fd 3d
       0.018541435 -0.112584904 -0.029424917 0.12394773
0002b0 8a 2b 38 bd ad a9 c9 ba 83 c2 f2 bd 74 c7 9d bd
       -0.044963397 -0.001538565 -0.118535064 -0.07704058
0002c0 39 88 9c bc 33 ad ad bd cb 01 cd bc fd 6c 67 3d
       -0.019107925 -0.08480301 -0.025025269 0.056500424
0002d0 ee 15 00 be cf e5 27 3d 1d cb c0 bd 3c 35 55 bd
       -0.12508366 0.040990647 -0.09413741 -0.05205272
0002e0 38 93 17 3d da 33 d8 3d ea 09 18 bd 61 c2 3f bd
       0.037005633 0.10556765 -0.03711883 -0.046816234
0002f0 c4 99 dd bd 22 a5 72 bd b9 13 d7 bd 19 1f cd bc
       -0.10820344 -0.059239514 -0.10501809 -0.025039243
000300 38 21 ad 3c 52 93 dc bd e2 3d 00 3e 6e 3f 8f 3d
       0.021134004 -0.107702866 0.12523606 0.0699452
000310 6e 3e f5 bd fb a0 8b bd 2d 20 42 3d 1f bb 93 bc
       -0.11974798 -0.06817814 0.047393966 -0.018033562
000320 50 08 bb bc 24 77 2c bd a7 5e cf 3d 38 5e 70 bd
       -0.022831112 -0.04210581 0.101254754 -0.058683604
000330 83 90 c5 3d 4d 22 3c 3c d2 5e a0 3c de 18 c8 3d
       0.09646704 0.011482787 0.019576464 0.09770368
000340 f8 7a da bc 16 98 91 bd 85 f6 ab bc 11 99 ca 3d
       -0.026669964 -0.07109086 -0.020991573 0.09892476
000350 07 49 ba bd 29 bb 40 3d 39 e7 01 be 5c e6 9a 3d
       -0.0909596 0.04705349 -0.1268586 0.07563469
000360 5f d6 6d 3d 2e 04 8d 3c 1c 6a 73 3d 7b f8 15 bc
       0.05806577 0.017213907 0.059427366 -0.009153481
000370 a0 1a a2 3d 84 f6 ad bd 71 44 b0 bb 03 5c 67 3d
       0.079152346 -0.08494285 -0.0053792526 0.056484234
000380 3c 98 ee 3d ad 88 a0 3d 8f 94 d1 bd f2 ec ae 3d
       0.1165013 0.07838569 -0.102334134 0.085412875
000390 b4 00 f6 bc 56 7e 74 bc 14 93 d6 bd 04 f0 9b bc
       -0.030029632 -0.014922699 -0.10477272 -0.019035347
0003a0 7e 6c b5 3d f5 4e 95 3c e1 a5 7f bd ca 40 47 3d
       0.08858584 0.018226126 -0.062414054 0.048645772
0003b0 51 98 1b bd 51 8f f8 3d cd c7 d5 bd 28 9f 30 bd
       -0.037987057 0.121367104 -0.104384996 -0.043120533
0003c0 9f 73 f4 bd 6b f8 56 bd e5 79 14 3d 9d 6d 0a 3e
       -0.119361155 -0.052483004 0.03624906 0.13518377
0003d0 04 b1 00 3d b7 06 0d 3e c7 11 a4 3c 0e 8a 93 3d
       0.031418815 0.13772093 0.020028008 0.07204066
0003e0 dd 60 c7 3d bc 86 de 3d 45 9d 8a bd c9 fd d7 3d
       0.09735272 0.10865542 -0.06768278 0.105464526
0003f0 0a 18 b6 3d b7 31 3a bd 50 c9 65 bd 71 b1 b8 bd
       0.08891304 -0.045457568 -0.05610019 -0.09018219

model.layers.1.bias f4 [128]
000000 55 1e 31 3d 31 77 ac 3d 31 58 67 3c 2b 80 3d 3d
       0.043241818 0.084211715 0.014120148 0.04626481
000010 26 d7 c7 bd 68 29 b2 bd 92 b8 a6 bd 53 50 9d bd
       -0.09757833 -0.08699304 -0.08140673 -0.07681336
000020 8a 60 92 bd 31 e3 a1 bd cb 43 3f bd 3e 94 93 bd
       -0.071473196 -0.079046614 -0.04669551 -0.07206009
000030 d2 1e 0d 3d ba 34 c5 3b 49 0f 85 3c 64 dc 36 3d
       0.03445322 0.0060182484 0.01624264 0.044643775
000040 e8 b3 f0 bd 58 86 53 bd 19 ab dc ba 33 18 df bd
       -0.117530644 -0.051641792 -0.0016835659 -0.108932875
000050 ba b1 84 3d 90 14 bb bd 24 ae b6 3d 16 38 fa 3d
       0.06479211 -0.09134781 0.089199334 0.12217729
000060 87 6a b1 3c a8 c9 68 bd 62 08 c5 3d 1b 31 a3 bd
       0.021657242 -0.05683294 0.096207395 -0.079683505
000070 5a 7a a7 3c 07 9f aa 3d d2 b0 02 3e 6d 68 8d 3c
       0.020444084 0.08331113 0.12762764 0.017261708
000080 fb f1 34 bc 91 3f 61 b9 77 3d fc bd 08 db a6 3c
       -0.011044021 -0.00021481352 -0.12316411 0.020368114
000090 db 42 d7 bd 29 ea f1 3b be c1 15 bd e4 dc 95 3d
       -0.105107985 0.0073826504 -0.03656172 0.07317522
0000a0 ad 4c 2f bd bd f7 ac 3d f8 42 fb bc 0b 68 cb bc
       -0.042797733 0.0844569 -0.030671582 -0.024829885
0000b0 1d 7d d2 bd 8d 81 d8 3d 68 8e 93 3c f9 72 f0 bd
       -0.1027777 0.10571585 0.01801224 -0.11740679
0000c0 99 f6 10 3c e9 f5 6f 3d 58 a3 8e bc 6f ff cd 3d
       0.008847856 0.058584128 -0.017411873 0.10058486
0000d0 46 d7 7a 3d a6 7a a1 bc ca f9 e6 3d 25 ac ae 3d
       0.061240457 -0.019711804 0.11278112 0.08528928
0000e0 fe a0 6b b9 35 9b 50 bc 54 16 12 3d 82 ea 13 bd
       -0.0002247132 -0.012732317 0.035665825 -0.036112316
0000f0 9a f9 97 3d f8 07 ea bd 51 67 71 bd bc 4b 3a 3d
       0.074206546 -0.11427301 -0.05893642 0.045482382
000100 23 91 e6 bd 6a 38 05 bd 79 10 87 bd 19 04 8f 3d
       -0.112581514 -0.032524504 -0.06594939 0.069832034
000110 f1 e8 bc b7 ba 0e ae bd 5a fc d6 3d 18 0e 52 bd
       -2.2519818e-05 -0.084989026 0.10497351 -0.051282972
000120 73 be a9 bc 6c 38 54 3d 13 31 b0 bd 22 47 21 bc
       -0.020720696 0.05181162 -0.0860311 -0.00984362
000130 70 f7 65 bd fa ea af bc b9 5b 40 bd d9 4f 8c 3d
       -0.056144178 -0.02147435 -0.046962474 0.06851167
000140 f6 1a 7c bd a2 7b 9b bd 17 68 34 3d 03 40 0b 3d
       -0.06154915 -0.075919405 0.04404458 0.033996593
000150 95 06 b5 3b 5f 8c a1 3c 72 df ed 3d a4 88 34 bd
       0.0055244663 0.019720254 0.116148844 -0.044075623
000160 26 84 c5 bd b6 fa f1 bd 7e 42 f4 3c f3 50 59 3d
       -0.09644346 -0.118153974 0.029816862 0.053055715
000170 19 b8 10 3c 8d c1 cf bd 3a 1c b4 bd b0 4a b8 bd
       0.008832955 -0.10144339 -0.08794446 -0.089986205
000180 4c d1 be 3d 1c 41 cd 3c bd 4d 89 bd 12 d2 04 be
       0.09317264 0.02505546 -0.067042805 -0.1297076
000190 97 22 84 3d 49 87 d0 bb ab a9 03 3e 79 50 d6 bd
       0.0645191 -0.0063637835 0.12857692 -0.10464568
0001a0 54 05 e1 bd d9 e0 55 3c 16 6e af 3d fa 77 93 3d
       -0.109873444 0.013054096 0.08565919 0.07200618
0001b0 5d be 08 3e 2d 3f b7 3d 5a 0b 79 3d 41 20 99 bd
       0.13353868 0.08947597 0.06080184 -0.07476855
0001c0 e0 4f f6 3d c9 73 46 bd 59 cf 96 3d 4d 71 33 3d
       0.12026954 -0.048450265 0.07363767 0.043809224
0001d0 51 30 8e bd 54 74 04 bc 3a c3 57 bc 39 d0 b3 3d
       -0.069428094 -0.008084375 -0.013169104 0.0877995
0001e0 a3 48 cc 3d f7 fe 11 3d 3d 40 8c bd 64 fb 25 3d
       0.09974792 0.035643544 -0.0684819 0.040522948
0001f0 6c 1d d3 3d 37 24 97 bd 4b 3a cc 3d 24 ed f2 3c
       0.10308346 -0.07379954 0.09972056 0.029654093

model.layers.2.weight f4 [256, 128]
000000 1c 3e 15 3d d2 21 a0 3c 55 61 84 3d 76 f8 81 bd
       0.036436185 0.019547377 0.06463877 -0.06346218
000010 82 c3 cf 3c 18 77 83 bd 5e ab db 3b 95 2f 6d 3d
       0.02536178 -0.064192 0.006703778 0.057906706
000020 1c 62 a9 bd 5b 36 64 bd 40 c9 4a bd 33 62 7a 3c
       -0.08270666 -0.0557159 -0.049508333 0.015282202
000030 b2 da d7 bb c4 70 6e bd 8d 54 9e 3a 65 b5 ec bb
       -0.00658735 -0.05821301 0.0012079641 -0.0072237724
000040 0c 2c 55 bd 0d cb 94 3c 56 c7 29 3d 26 e8 d8 3c
       -0.05204396 0.018163228 0.041449867 0.026477885
000050 72 7d 8c bd f5 1c 96 3d 24 3a a6 3b 64 d7 12 bd
       -0.06859864 0.07329742 0.005072849 -0.035849944
000060 f7 b8 85 3d 92 b0 cc 3c a7 59 67 3d a7 1d 6e 3d
       0.0652942 0.024986539 0.056481984 0.058133747
000070 17 99 77 bc db c0 8f 3d 38 bb 82 3b 45 7e 76 3d
       -0.015112183 0.07019206 0.0039896034 0.060179014
000080 f1 35 c6 ba cd 90 4b 3d 7e 5f 06 3d 7b 24 19 bd
       -0.0015122277 0.04969864 0.032805912 -0.037388306
000090 64 d0 88 3d a4 29 bc 3b 0c 68 b1 3c b9 e2 97 bd
       0.06680372 0.0057422686 0.021656059 -0.07416291
0000a0 ac 4e ad bc fc 37 3d 3d 3d c8 84 bd cd 60 66 3b
       -0.021155678 0.04619597 -0.06483505 0.0035152913
0000b0 92 c3 87 3d 15 c5 c6 bd 9e dc 2f 3b 9f 92 e0 3c
       0.06629099 -0.09705559 0.002683438 0.027413664
0000c0 e6 33 86 3d de 9d dc bc e3 76 aa bd 0c b9 35 bd
       0.065528676 -0.026930746 -0.08323457 -0.044365928
0000d0 da 30 8d 3c 32 cf 5b bd f5 47 af bd 8c a3 21 3c
       0.017235208 -0.053664394 -0.085586466 0.009865653
0000e0 8c f3 85 3c cf c4 88 bd 51 e0 3e bd 44 d1 52 3d
       0.016351484 -0.06678163 -0.046600644 0.051469103
0000f0 65 1f 86 bd d0 2b 6f bd 8e e1 1b bd 15 8c 85 3d
       -0.06548957 -0.058391392 -0.038056903 0.06520859
000100 b4 80 7e bc 8d 98 90 bd 39 e9 97 bd 56 11 72 bc
       -0.015533615 -0.07060347 -0.074175306 -0.014774641
000110 f5 15 95 3d 5c d9 cc 3c 91 3a e1 bc 58 ce 82 bd
       0.072795786 0.025005989 -0.027493747 -0.06387013
000120 6f 59 80 bd 62 33 de 3c 03 be 79 3d 28 96 50 3d
       -0.06267058 0.02712411 0.060972225 0.05092445
000130 8b fe 88 bb a1 e3 2e 3d fd 67 73 3c 36 ae d9 3c
       -0.0041807345 0.042697553 0.014856336 0.026572328
000140 b7 da 04 3d 41 6c 00 bd be bc 0f 3d c4 4a 64 bb
       0.032435145 -0.03135324 0.035092108 -0.0034834603
000150 2c 48 12 3d 1e 6e 82 bc 94 f9 8d 3d 8d 48 b8 bd
       0.03571336 -0.015921649 0.06932369 -0.08998213
000160 39 99 3e 3d 3d 22 99 bd 52 fa 8e bd 13 29 3a bd
       0.046532843 -0.074772336 -0.069813386 -0.045449328
000170 d3 cc b1 bc e6 ae ae bc 54 3c 9b bd 77 4c 65 3d
       -0.021704113 -0.021323632 -0.07579866 0.055981126
000180 b4 29 8d 3c c0 6a c3 3d 39 9c 5b bd 3f f9 a5 bd
       0.0172318 0.09541845 -0.053615782 -0.081041805
000190 98 33 08 3d df 50 9d 3d 79 b7 38 3d a5 d9 e3 3c
       0.03325233 0.076814406 0.04509685 0.027813742
0001a0 47 20 c6 3c 9a 62 03 3d d7 80 34 bd 05 37 ca bd
       0.024185313 0.032076456 -0.044068184 -0.098737754
0001b0 1b c8 82 bd 51 10 85 bd 98 e5 f7 3c 10 c0 97 3d
       -0.06385823 -0.06497253 0.030260846 0.0740968
0001c0 dc 42 41 3d 46 40 8d bd 18 d0 74 3c 58 bf b5 3d
       0.047182903 -0.06897025 0.014942192 0.088743865
0001d0 82 e8 b5 bb 23 65 c7 bc f2 7b 2d bd fb a5 80 bc
       -0.0055513987 -0.024340218 -0.04235453 -0.015704146
0001e0 68 d9 a3 3d bc 1c 15 bd 9b 3b c6 bb 57 43 61 3d
       0.08000451 -0.036404356 -0.006049586 0.05499586
0001f0 da af f9 bc 75 88 37 bd e6 92 fd 3a 03 fe 5b 3d
       -0.03047936 -0.04480787 0.0019346147 0.05370904
000200 7b 94 48 3c eb 3b 54 3a 89 2f 84 bd d0 eb 27 3d
       0.012242432 0.00080960867 -0.06454379 0.040996373
000210 2a 9e 22 3c 18 8c 57 bd 38 fc ad bd f4 d8 02 bd
       0.009925405 -0.05262384 -0.084953725 -0.031945184
000220 96 ee 6a bd 3b b0 69 3b f5 60 99 3d c8 ba db bc
       -0.05735644 0.003565802 0.07489196 -0.026822463
000230 54 c6 5c 3d 7d 43 df bc 1f 3f 33 bd 47 f8 c2 bd
       0.053900078 -0.02725386 -0.04376137 -0.095200114
000240 82 e9 4e bd 93 54 5f 3d 72 85 39 3d c3 36 9d 3d
       -0.05051566 0.054524016 0.04529328 0.076764606
000250 8f 24 88 bb 04 e8 a3 3c 4c a9 bb bb 04 ff cd 3d
       -0.0041547487 0.020008095 -0.005726969 0.10058406
000260 08 0a 78 bd f9 67 f1 bc d4 a2 bf bd fc c0 74 bb
       -0.06055644 -0.029468523 -0.09357229 -0.0037346473
000270 0c 57 72 bd 36 5c 63 bd 8e 38 54 3c e6 4c c1 3d
       -0.059165046 -0.05550786 0.012952937 0.09438495
000280 da 3f a6 3d ca b1 42 3d bf 0c dc bb cb be 2d bc
       0.081176475 0.047532834 -0.0067153866 -0.010604571
000290 72 98 96 bd cf c3 7d 3d d4 17 0d 3d 17 04 a8 3d
       -0.073532954 0.061954316 0.034446552 0.08203905
0002a0 8e 1e c3 bd 9f 52 16 bc 57 03 6b bd 47 8b 85 bd
       -0.09527312 -0.009174972 -0.057376232 -0.06520706
0002b0 8a ce 26 bd d0 a4 e9 3c 4c 5d 5a 3d f1 21 e6 3c
       -0.040724315 0.028520972 0.05331163 0.028092356
0002c0 49 fb 1a bd db 00 03 3d e2 42 92 3d eb 11 29 bc
       -0.0378373 0.031983238 0.07141663 -0.010319213
0002d0 c7 de d6 bc 07 cf ab bd 68 99 96 3d c2 c2 ee bc
       -0.026229275 -0.08389097 0.07353479 -0.029145602
0002e0 ec 02 68 bd 13 8b 64 3d 49 72 ce 3c 90 87 1c bd
       -0.05664341 0.055796694 0.02520098 -0.03821522
0002f0 3b e5 9b bd 91 d5 e4 3a ad 50 c5 bc de 2b 5d bc
       -0.076120816 0.0017458667 -0.02408632 -0.013499228
000300 68 84 2d bd 34 6f 9b 3d a0 62 56 3d 45 89 69 3d
       -0.0423626 0.0758957 0.05234015 0.057015676
000310 0b 95 8e 3c 95 9d e4 3c 56 c7 ad 3d ac fe 1d bb
       0.017405054 0.027907172 0.08485286 -0.0024108095
000320 9d 40 47 3d 8e 9a 2d 3d 99 5a 9b bd c6 f0 58 3d
       0.048645604 0.042383723 -0.075856395 0.052963994
000330 a8 65 b9 bc 2c 15 97 bd e6 ad 66 3d 11 b1 b0 bd
       -0.022631481 -0.07377085 0.056318186 -0.08627523
000340 18 e7 3e 3d c9 2b 86 bd f7 c1 02 bd 35 96 a3 bd
       0.046607107 -0.0655132 -0.03192326 -0.07987634
000350 b4 1b 83 3d 73 df 83 3c f7 fc 85 3d de f9 0e 3d
       0.06401768 0.01609776 0.0654239 0.03490626
000360 1c cc 20 bd 3e 63 9e 3c 29 11 76 3d b6 14 a4 bd
       -0.039257154 0.019334432 0.06007496 -0.08011763
000370 5f b6 5b bd d7 4f 7e bc aa 50 84 bd dd 23 da bc
       -0.05364072 -0.015521965 -0.06460698 -0.02662843
000380 59 fe 94 3d 14 bd 26 3d 45 49 9b bd 88 2b 29 bd
       0.072750755 0.040707663 -0.075823344 -0.04130128
000390 03 e8 6c 3d 71 12 b0 bc 4c 55 d0 bc dd 4e c9 3c
       0.05783845 -0.021493169 -0.025431298 0.024573738
0003a0 5f 0c c4 bc 29 e8 1b 3d c6 5a 09 3c 99 e9 81 3d
       -0.02393168 0.038063202 0.0083834585 0.06343383
0003b0 12 9d 60 3d 23 f8 22 3d 00 7b 70 3c f9 bf 05 bd
       0.054837294 0.039787423 0.014677763 -0.032653783
0003c0 e8 e4 9b bd 29 99 a2 ba 54 70 83 bd 15 b8 a6 bd
       -0.0761202 -0.0012405264 -0.06417909 -0.081405796
0003d0 3a 25 a9 bd 06 74 a2 bb 5a 20 97 bd 39 ee c8 3c
       -0.082590535 -0.0049576787 -0.073792174 0.024527656
0003e0 22 ed e4 3c ce 74 61 3d 1e 87 c3 bd d5 b4 95 3d
       0.027945105 0.055043034 -0.09547256 0.073098816
0003f0 69 97 01 3d e6 6b 96 3d 72 76 41 3d ba 78 ad 3c
       0.031638537 0.07344799 0.0472321 0.021175731

model.layers.2.bias f4 [256]
000000 da 62 8b bb 01 20 af 3d 6b 1e aa bd e9 66 43 bd
       -0.0042537274 0.08551026 -0.08306583 -0.047705565
000010 4f c6 84 bd ed 70 b9 3c 5c 2e 36 bc 8d 39 74 3d
       -0.06483137 0.022636855 -0.011119451 0.059625197
000020 0f f4 5f 3d 86 9a f5 bb 4b a5 9d 3c 8e d4 83 3d
       0.05467611 -0.0074952273 0.019243857 0.06437026
000030 5d ac 06 3d 07 04 e2 3c fb a3 82 bd 34 e3 a5 bd
       0.032879222 0.027589811 -0.06378933 -0.08099976
000040 4b b9 63 3d 0c 57 79 bd 6e 57 85 bd 5a 33 3a bd
       0.05559663 -0.06087403 -0.065108165 -0.04545913
000050 93 a8 56 bd e6 73 0d bd 41 4e 89 3d ca 54 6f bd
       -0.05240686 -0.034534357 0.06704379 -0.05843047
000060 2d 2e 6b 3d 51 1a 92 3d 0d 15 27 3d 2a d4 b2 3d
       0.057417084 0.07133926 0.04079156 0.08731873
000070 aa 36 05 bd 44 9c 3a bd 68 d1 50 bd 55 bb d9 3c
       -0.032522835 -0.045559183 -0.050980955 0.026578585
000080 6e d0 99 bc e9 45 d4 bb 35 af 8f bd e2 2b bb 3d
       -0.018776145 -0.0064780605 -0.0701584 0.09139229
000090 64 28 a6 39 1a 84 c0 bc 88 0b 81 3d 1a fe c5 3d
       0.0003169208 -0.023500491 0.063010275 0.09667607
0000a0 ae ef c2 bd 23 29 06 3c 9a 4f a8 bd e3 92 98 bd
       -0.095183715 0.008188519 -0.08218308 -0.074498914
0000b0 ff 6e 94 3b 18 c2 f7 3c 0b d5 04 bd 33 7f ab 3c
       0.0045298333 0.030243918 -0.032429736 0.020934677
0000c0 05 5f 1e 3d 2e 91 84 3d 8f 9d f1 3c 08 b1 75 3d
       0.038664836 0.06473003 0.029494075 0.059983283
0000d0 2f 56 10 3c b2 b8 bd bd 5b 72 26 bd 74 0f 83 bc
       0.00880961 -0.092637435 -0.0406364 -0.01599858
0000e0 61 47 a2 bd ac ef 84 bd 2e 03 7d bd 63 06 a1 3c
       -0.07923771 -0.06491026 -0.06177061 0.019656366
0000f0 75 08 c9 3c b7 5c ad bc aa 17 30 bd fb bc 26 3d
       0.024540165 -0.021162374 -0.042991318 0.04070757
000100 88 df 63 ba b4 c9 73 3d 94 ba be 3d c9 f4 fe 3b
       -0.00086926715 0.05951853 0.09312931 0.0077806455
000110 35 c9 5f 3d d4 dc 78 bd 01 52 2e bd cf aa 0a bd
       0.054635245 -0.060757473 -0.042558674 -0.033854302
000120 33 46 5f 3d 94 82 54 bd ca 39 d8 3c 4a 73 f3 3c
       0.054510307 -0.05188234 0.026394743 0.02971806
000130 74 41 cb bc 17 e0 7d bd 34 98 5d 3d 8a 7f b2 3c
       -0.024811484 -0.061981287 0.05410023 0.021789331
000140 4c 4b 98 bc bf 27 8c bd 96 c4 8e 3b 05 3a 47 3b
       -0.018590592 -0.068435185 0.004356931 0.0030399573
000150 36 50 4d bc 0e c1 8a bc 32 6b b6 bd b3 34 ec bb
       -0.012531331 -0.016937759 -0.08907165 -0.0072084307
000160 a4 f1 25 3d 49 80 d6 bb a3 95 86 3c c1 00 81 3c
       0.04051365 -0.0065460545 0.016428774 0.01574743
000170 9b f9 ce 3b c2 f8 a3 3d 35 58 95 3b 3b 2f 9b 3d
       0.0063163764 0.08006431 0.0045576342 0.07577368
000180 68 07 f1 3c 31 d9 98 3c bc 05 49 bd f6 76 ee 3c
       0.029422477 0.018658252 -0.049077734 0.02910946
000190 a8 d6 41 3d 8d de 8b 3d 7e e0 26 3d 6d ee 6e bd
       0.047323853 0.068295576 0.040741436 -0.05833285
0001a0 6b e8 76 3d 34 48 91 3d 8e 79 45 3d 8a 61 7f bc
       0.060280245 0.0709385 0.048211627 -0.01558722
0001b0 1b fc 81 3a 00 fa bf 3d cc 1b 8d 3d c6 9b a5 bd
       0.0009917052 0.093738556 0.068900675 -0.08086352
0001c0 91 8e 29 bb a4 d9 84 bd 4e 6d 66 bc 00 5e 76 bd
       -0.002587233 -0.06486824 -0.014064146 -0.06014824
0001d0 be de 9a 3b 92 77 a2 bd f2 97 59 bd f1 43 16 bc
       0.00472626 -0.079329625 -0.053123422 -0.009171472
0001e0 8b 4e 32 3d 24 1d 12 bc e2 f5 a8 bc f4 a3 8f 3d
       0.043531936 -0.0089180805 -0.020625059 0.070136935
0001f0 43 a0 81 3c b1 a0 2b bd f1 c1 11 bd d1 f6 40 3d
       0.015823489 -0.041901294 -0.035585348 0.047110382
000200 4d 6a b5 39 c8 5d 14 3c c7 59 38 3c 61 0c 01 bd
       0.0003460221 0.009055562 0.011251873 -0.031505946
000210 74 0b c7 bc 35 26 88 3d e5 4b 4d 3d 8c 0b dd 3c
       -0.024297453 0.066479124 0.050121207 0.026983045
000220 c0 fd 7f 3c 6c 8a 92 39 4d ad 90 bd 52 57 7b bd
       0.015624464 0.00027950422 -0.070643045 -0.061362572
000230 b3 78 bb 3c d9 be d7 3c 9c 54 cb 3c 92 8c 3b bd
       0.022884702 0.02633612 0.024820618 -0.045788355
000240 10 81 27 3d 97 dd 8a 3d 3f 39 51 3c fa 8b a2 3c
       0.040894568 0.06780546 0.012769996 0.019842137
000250 7e e3 ab 3d fd b7 48 3c 1f e8 50 bd 6d 1d ab bd
       0.08393 0.0122508975 -0.051002618 -0.08355222
000260 04 f2 4b bd 19 fe 7c bb 37 e3 52 3d 2f f4 55 bd
       -0.04979135 -0.0038603602 0.05148622 -0.052234825
000270 79 f0 91 3c 4b 29 d6 3c d1 93 e9 bb 0f 05 66 bd
       0.017814862 0.026142737 -0.007128217 -0.056157168
000280 f2 ec b2 bc 75 ca 82 bd 24 eb 2a bc e9 4a a7 3d
       -0.0218415 -0.06386272 -0.010432038 0.08168585
000290 fc 53 1f bc bb 95 e5 3c 00 47 d2 bc 99 b9 19 bd
       -0.009724613 0.028025499 -0.025668621 -0.037530515
0002a0 e8 aa 09 bc e9 e6 a9 3d d8 44 89 bd 06 71 86 3c
       -0.008402564 0.08295996 -0.06702584 0.016411316
0002b0 98 c1 66 bd 13 0f 20 bc d8 30 33 bc d6 75 b6 bc
       -0.05633697 -0.009769219 -0.010936938 -0.022272985
0002c0 1b b9 a2 3d 3e e9 a8 3b dc 23 c6 bc 1f 1a 15 bd
       0.07945462 0.0051547578 -0.024187021 -0.036401864
0002d0 24 93 71 3d 99 19 9d 3c 2c dc 05 bd d9 95 ac 3d
       0.058978215 0.019177245 -0.032680675 0.08427019
0002e0 2c df 56 bd 86 4b f2 3c 20 2d 94 bc 0b 10 eb bb
       -0.052458927 0.029577028 -0.018087924 -0.0071735433
0002f0 28 60 46 3d e5 a0 85 bc 1e b5 05 3d 40 4c 8d bc
       0.048431545 -0.016312072 0.03264343 -0.017248273
000300 d4 50 82 3d 2b 84 06 bd 5e 03 99 3d 72 3c ce bc
       0.06363073 -0.03284089 0.07471345 -0.025175307
000310 f6 3e 5b bb bc bc b7 bd 8d 5a c1 3a 9f 1e 26 3d
       -0.0033454276 -0.08971545 0.0014751718 0.040556546
000320 8e b5 66 bd 65 b0 66 3d 39 50 53 3d 23 a7 b1 3d
       -0.056325488 0.056320567 0.05159018 0.08674457
000330 12 05 9d 3d 0f 39 8e bd 75 87 2d bd ba c7 52 bc
       0.07666983 -0.06944477 -0.04236551 -0.012865001
000340 c3 1d 3b 3d 8d de 31 bc c1 d3 ce 3b 02 56 93 bd
       0.04568268 -0.010856283 0.006311864 -0.07194139
000350 f3 23 4f bb 9b 70 76 3d 27 dc 51 bd a3 e5 0c bd
       -0.003160712 0.060165983 -0.051235344 -0.034398686
000360 7a 86 f6 3c 54 e9 5b bc d3 1f 52 3d f9 cc 36 3d
       0.03009342 -0.013422329 0.05129988 0.04462907
000370 bc b2 98 3c be c6 8b 3c 85 6b a1 bd b0 d9 db 3c
       0.018639915 0.017062541 -0.07881836 0.0268372
000380 68 9d d4 ba 49 a9 06 3d 25 c1 89 3d a1 c1 96 bd
       -0.0016221227 0.032876287 0.067262925 -0.073611505
000390 f0 e6 ad 3d 0a f3 aa bd e7 b9 05 bd aa b3 ec 3b
       0.084913135 -0.08347137 -0.032647993 0.007223566
0003a0 c1 b5 49 3d d5 7b 1d bd db c7 29 bd 88 d3 c1 bc
       0.0492456 -0.038448174 -0.041450363 -0.023660436
0003b0 cd 0a 83 bd 57 a4 39 3d d3 86 2f bd 1c 14 a4 bd
       -0.063985445 0.045322742 -0.042853188 -0.08011648
0003c0 c0 8c 01 bd 0f 5c 92 3d da 41 83 3c 18 8d 51 ba
       -0.03162837 0.07146465 0.016022611 -0.0007993742
0003d0 25 a3 6e bd 61 77 5c 3d c6 40 a7 3d 59 b0 a6 bd
       -0.058261055 0.053824786 0.081666514 -0.081391044
0003e0 61 5a 96 bd ed ae a1 3d 29 c8 bc bd 1b eb 92 3b
       -0.07341457 0.078946926 -0.09217865 0.004483593
0003f0 08 d0 7e 3d ca 4f ac 3d 63 29 07 bc 21 fc 1b 3c
       0.062210113 0.08413656 -0.008249613 0.009520561

model.layers.3.weight f4 [128, 256]
000000 ef b4 d8 bb 1a f7 23 bd 5e d6 87 bd bc 3f 02 3d
       -0.006613366 -0.040030576 -0.06632684 0.031799063
000010 b8 8f 63 3d 96 0d d6 bc 72 a8 8f 3d 2d 30 c5 bb
       0.055556983 -0.026129525 0.0701455 -0.006017706
000020 ae 28 d1 3c b6 17 33 bd b6 37 4d 3d 8d ad 7e bc
       0.025532093 -0.043723784 0.05010196 -0.015544307
000030 1f 8e 4c bd cc df 9e bc 84 f5 3c bd ec 59 22 bd
       -0.049940225 -0.019393824 -0.04613258 -0.039636537
000040 dd bf 0c bc 60 7e 6f 3d f4 68 30 3c bc b2 c6 3c
       -0.008590666 0.05847013 0.01076721 0.024255149
000050 f1 90 53 3d 08 8e 10 bd 9b f3 79 bd 5f 26 76 bd
       0.0516519 -0.0352917 -0.061023336 -0.060095187
000060 ea 7a 96 bd 73 a1 bd bc e0 bf e4 3c 8e 96 1b bd
       -0.07347663 -0.023148274 0.027923524 -0.037985377
000070 6b 55 98 3c 40 30 8f bc ff 70 31 bd eb f2 65 3d
       0.018595418 -0.017479062 -0.043320652 0.056139868
000080 94 a5 e0 3c 16 0d 67 3d 7e fc 9f bc ed f6 ba 3b
       0.027422704 0.056408964 -0.019529577 0.0057057054
000090 d2 42 0d bd b8 d4 81 bd ba f1 08 bc 6d cc 0e 3d
       -0.034487553 -0.06339401 -0.008358413 0.034862924
0000a0 79 d7 f7 3b 9c 27 13 bd 40 49 73 bc 53 c6 73 3d
       0.007563528 -0.035926446 -0.014849007 0.05951531
0000b0 8a fc 5b 3d 87 d1 d5 bc 78 89 da bc 78 7e 85 3c
       0.053707637 -0.026100887 -0.026676878 0.016295657
0000c0 73 a8 1a bd ea b5 a1 bc ef 8f 97 bc 00 06 8a 3c
       -0.037758302 -0.019740064 -0.01850125 0.016848564
0000d0 60 2b 8b 3c 99 49 75 3d 89 4a 81 3c e3 c1 17 bd
       0.016988456 0.05988464 0.015782611 -0.03705014
0000e0 d8 cb 82 bd 04 84 35 bd e9 b1 45 bd cd 3c 30 3d
       -0.06386536 -0.044315353 -0.04826537 0.043026734
0000f0 ec 66 de 3c aa ed fc 3c 67 81 2d 3d 03 d8 30 bd
       0.027148686 0.030875046 0.042359736 -0.043174755
000100 c5 7b ab bc fd a5 f2 3c eb f3 b8 3c e1 8d 7c 3d
       -0.020933041 0.029620165 0.022577247 0.061658744
000110 39 d0 2f bd fa 82 88 3d d8 e4 17 bc 99 b2 17 bd
       -0.042923186 0.06665607 -0.009270869 -0.03703556
000120 f8 38 35 bd f4 09 22 3d de 91 cc 3b ea 68 53 bc
       -0.044243783 0.039560273 0.0062429747 -0.012903431
000130 b8 a9 89 3d 8f 46 90 3d 14 d1 95 3d 2a 23 0d bd
       0.067218244 0.07044708 0.07315269 -0.034457363
000140 39 58 8b bd 81 64 dc 3a 8e b9 e2 3c ba 92 9c bb
       -0.068039365 0.001681462 0.02767637 -0.0047782334
000150 82 41 cc bc 11 74 cd 3b 6e ff 33 bd c9 1e 32 3c
       -0.02493358 0.0062699397 -0.04394477 0.010871598
000160 ab 3c 1e 3d 14 21 f3 bb aa 19 c8 3b dd 93 e5 bc
       0.038632076 -0.0074197147 0.006106575 -0.028024608
000170 11 36 01 bd 5f 54 86 bc 97 c5 b2 3b ac d6 0d 3c
       -0.031545702 -0.016397653 0.0054556835 0.008657139
000180 85 5a 1e bd ad 57 27 3d 34 d5 af 3c cd bc ea 3c
       -0.038660545 0.0408551 0.021463968 0.02865448
000190 17 fa cb bc 13 f7 63 bd b4 f5 2b 3d 94 de d6 bb
       -0.024899526 -0.05565555 0.041982368 -0.006557295
0001a0 43 7d 8c 3d ac cd 31 3a d2 05 7a 3d c1 d2 98 3d
       0.06859829 0.00067826617 0.061040707 0.07462073
0001b0 1e 8f a0 3c c7 9a 82 bc ee da 84 bd a8 76 08 bd
       0.019599494 -0.015942944 -0.0648707 -0.033316284
0001c0 56 dd ec 3b 93 94 0c bd e5 13 5c bd 1a 7f 27 3d
       0.0072285337 -0.03432138 -0.05372991 0.040892698
0001d0 3a 05 4d bd 42 d6 63 bc 7f ce ab 3b 7d d0 2c bc
       -0.050053813 -0.0139060635 0.005243122 -0.010547754
0001e0 c2 2a 08 bd 78 9a 25 bd 5a 4c 7b 3d e8 0f c7 3c
       -0.033243902 -0.040430516 0.06135211 0.024299577
0001f0 6d d0 0d bd d3 d1 9a bc 17 c7 1f bc 0f d3 e5 bc
       -0.0346226 -0.01889888 -0.009752057 -0.028054742
000200 5c 78 5c 3d 1c 4e 02 3d f4 0d ad bc 2d 10 55 3c
       0.05382572 0.031812772 -0.021124817 0.013004345
000210 9e 97 b7 bc 3a 18 30 bd 52 63 1f 3d d0 05 a0 3c
       -0.022411164 -0.042991854 0.03891308 0.019534022
000220 c3 2c a4 bc 38 d3 0e bb 37 f3 fe bc 6c 60 0f 3d
       -0.020040875 -0.0021793377 -0.031121833 0.035004064
000230 fe 7e ca bc e6 2c d5 3b 9a fd 2f 3c c6 7b 0a 3c
       -0.024718758 0.0065055965 0.010741616 0.008452361
000240 eb 91 0e 3b 37 82 27 bc 1f bc 47 bd 92 da 3a bd
       0.0021754454 -0.010223917 -0.04876339 -0.0456186
000250 95 c8 b0 3c a2 a4 08 3c 61 60 1c bd 4c 3b 4f 3d
       0.02158002 0.008340033 -0.03817785 0.05059366
000260 30 7d f7 bb a0 49 37 3d f5 8c 83 3d 2d e1 70 bd
       -0.0075527653 0.04474795 0.0642337 -0.058808494
000270 e1 06 c4 bc 50 bf 7f bb 36 a4 43 bd df 3a 19 bd
       -0.023929061 -0.0039023943 -0.047764026 -0.03740966
000280 50 de 38 bd 8a 5f 1c bd 21 e8 a6 bc ef 22 1a bd
       -0.04513389 -0.03817705 -0.02037436 -0.03763097
000290 2b d5 d8 bc 95 45 85 bd 35 be ae bc 97 73 8a 3d
       -0.026468834 -0.06507412 -0.021330932 0.06760328
0002a0 f3 e0 f1 3c fb 05 49 3d a7 6f cc bc a2 9e f0 3c
       0.02952621 0.04907797 -0.024955584 0.029372517
0002b0 4b e1 5f bd 14 1b b0 3b 1b 4c 9a 3d c8 c0 83 bc
       -0.054658215 0.0053743217 0.07534047 -0.016083136
0002c0 90 52 ab 3c 57 d6 21 ba b1 b2 81 bd 0f 6c 20 3d
       0.020913392 -0.0006173602 -0.06332911 0.039165553
0002d0 a2 87 21 bc 9e 5d 1d bd 82 78 fb bc 71 71 55 3d
       -0.009858998 -0.03841936 -0.030697111 0.05211014
0002e0 44 d6 1c bd b9 6e 5d bd 09 a2 4e bd 87 ec 8f bc
       -0.038290277 -0.05406067 -0.050447498 -0.01756884
0002f0 f8 aa 6c 3c 66 3c fa 3b bb 22 31 3c 7b 2d 1a 3d
       0.014445059 0.0076365946 0.010811503 0.03764103
000300 6e ee 96 bc 9f 99 4f bb b0 b2 8c 3c 78 1f 35 3c
       -0.018424239 -0.0031677259 0.017175049 0.011054866
000310 78 7d f0 bb 58 66 07 3d 67 a7 44 3c fa 22 10 3c
       -0.007339176 0.033056587 0.012002802 0.008797402
000320 e9 ec 44 3d 95 ee 8f 3b 60 af 3e bc 15 32 0a 3c
       0.048077498 0.004392455 -0.011638492 0.008434792
000330 4b 0e ef bc d2 16 c9 bc 98 bd 36 3d 0f 6a 5c bd
       -0.02918162 -0.024547014 0.044614404 -0.053812083
000340 6e 94 09 3d 8a b2 25 3d 1a 34 6f bd 92 5b 51 3d
       0.03358882 0.04045347 -0.058399297 0.05111272
000350 45 ff 42 3d 09 f9 c6 bc cb 1c 5a 3d 70 e6 28 3d
       0.047606725 -0.024288671 0.053250115 0.041235387
000360 88 ca 57 bd 06 35 a0 bd 28 81 ef bc 4f 1b 1e 3d
       -0.052683383 -0.078226134 -0.029236391 0.038600262
000370 01 a9 a1 bc cb 76 8c 3d 9e d3 1e bd 0a f4 ff bc
       -0.019733908 0.068585955 -0.038776033 -0.031244297
000380 0a 42 3b bd df f9 1c 3d 7b 45 42 bd 4a d1 dc 3c
       -0.045717277 0.038324233 -0.047429543 0.026955266
000390 c5 b6 16 bd 33 50 82 3b 74 dd fa bc 49 72 09 3c
       -0.036795396 0.0039768456 -0.030623175 0.008389064
0003a0 1f f3 0c bd f2 98 36 3d 6b 7d 2b 3c 2a 4d 47 3d
       -0.034411546 0.044579454 0.010466914 0.048657574
0003b0 4e 24 53 bc d9 4d 1e 3d 6f 74 e3 3c 10 9f 74 bc
       -0.012887074 0.03864846 0.02776548 -0.014930502
0003c0 ed 43 2d bc fa b2 81 3d 22 41 ad bc ac c2 14 3d
       -0.010575277 0.06332965 -0.021149222 0.036318466
0003d0 b1 55 c0 3c b2 09 49 bd c9 79 8c 3c 93 3c b9 b9
       0.02347836 -0.04908151 0.017147915 -0.0003533108
0003e0 3c 65 11 bd 8c 83 5e bd a4 31 b5 3c 5b 29 8a 3d
       -0.035496935 -0.05432467 0.022118397 0.06746169
0003f0 33 58 f3 bc 98 44 68 3c c0 9b 81 bd 1c db 25 3d
       -0.029705143 0.01417651 -0.06328535 0.040492162

model.layers.3.bias f4 [128]
000000 bd e0 87 3c 5e 09 72 3d e6 bb d4 3c 70 a3 1d bd
       0.016586656 0.059090964 0.025968503 -0.038485944
000010 d6 0b 47 bd 4f ed 6d 3d dd e0 38 bd 9b 7b 02 3d
       -0.048595272 0.058087643 -0.04513632 0.03185616
000020 44 d6 28 3d 5c 42 ef 3b 70 2a 70 3c c7 e9 ea 3b
       0.041219965 0.007301612 0.014658555 0.0071689817
000030 69 cf 65 bd bf c5 e0 3b 62 45 1e 3d 72 e7 4c 3d
       -0.056106005 0.0068595107 0.038640387 0.05002541
000040 6a 3c d3 bc 52 7e bf bc 94 05 ff 3c 8e 15 26 bd
       -0.025785644 -0.023375664 0.03113059 -0.0405479
000050 a6 8c 8c 3b 61 29 4d 3d 4a 4c 69 bc ff 6d 22 3d
       0.0042892275 0.05008829 -0.01423938 0.03965568
000060 17 d4 c1 bb 3c d6 ee bc 31 24 d3 bb 40 57 f1 3b
       -0.0059151757 -0.02915489 -0.0064435233 0.0073651373
000070 e9 06 c9 3c a3 83 20 bd 7f c5 73 3d 90 c5 fa 3c
       0.024539428 -0.03918804 0.05951452 0.030611783
000080 0e 1b 87 bd 72 eb 52 bd 26 7e ef 3b 79 70 7a 3c
       -0.06596957 -0.05149407 0.0073087392 0.015285605
000090 26 57 35 bd 0c 25 68 bd 25 2f 80 bc ce 3e 2e bd
       -0.044272564 -0.056675956 -0.01564748 -0.042540364
0000a0 96 9c eb 3c df a8 92 bb ef c0 1f 3c 95 c1 27 bd
       0.02876119 -0.0044756974 0.009750589 -0.0409561
0000b0 64 cc 43 3d de 6e 0b bd 3b 1f a5 3c 5c 12 67 bd
       0.047802344 -0.034041278 0.020156493 -0.056413993
0000c0 c6 7f 7e bd 40 b5 34 bb c3 d5 a6 3c d0 14 55 bb
       -0.062133573 -0.0027573854 0.020365601 -0.0032513626
0000d0 1f 39 cf bc 04 76 28 3d c4 49 42 3d 9e 0e 63 bd
       -0.025295792 0.041128173 0.04743363 -0.055433862
0000e0 8e 2f 0e 3c 44 3e bd bc ec d6 12 3d 09 93 83 3c
       0.00867833 -0.02310098 0.035849497 0.016061323
0000f0 18 ca 97 3c 82 9d 2e 3d 32 ae 1b 3d 0c 8a 5d 3d
       0.018528983 0.04263068 0.038007922 0.05408673
000100 a8 03 2e bb ed 8c 15 bd 84 dc 19 3b 63 77 41 bd
       -0.0026552472 -0.03651135 0.0023477385 -0.047232997
000110 3c f1 15 bd c3 b1 06 bd 3a 37 39 3b 83 c3 07 bd
       -0.036607012 -0.03288437 0.0028261677 -0.03314544
000120 e6 b0 94 bc b8 93 86 3d d8 07 55 3d e9 49 c0 3a
       -0.018150758 0.06571144 0.052009434 0.0014670464
000130 21 b8 3a 3c 08 c6 67 bd f1 84 9f bc 58 07 2a bd
       0.011396439 -0.05658534 -0.019472571 -0.04151091
000140 24 ff 19 bd 9c 3c ed 3c d0 2c b4 bb 58 52 7a bc
       -0.037596837 0.028959565 -0.005498506 -0.015278421
000150 87 f4 3b bd 07 4c a5 3c 30 b9 2a 3d e0 7b a0 bc
       -0.045887496 0.020177854 0.041680515 -0.019590318
000160 c6 51 71 bd ef 49 21 bb ff 92 94 bb ea 2b ad 3c
       -0.058915876 -0.0024610718 -0.004534125 0.021139104
000170 fa 9e be bb 74 a0 8e bd c2 3a e8 bc 16 02 ac 3a
       -0.0058172913 -0.06964198 -0.02834833 0.001312318
000180 c3 25 8d bd 75 db 4b bd 39 ee 5f 3d e6 3e 8e bd
       -0.06891968 -0.049769837 0.054670546 -0.06945591
000190 37 24 bf 3c e8 29 36 bd 73 0d 88 3d fd d9 1e bd
       0.023332698 -0.04447356 0.0664319 -0.03878211
0001a0 2a 7f ad bc 0e 15 d9 bb cb 83 5a 3d 29 f7 98 bc
       -0.0211788 -0.0066248244 0.053348344 -0.018672543
0001b0 3f d8 0b bd de e9 23 3d d0 36 3f bd fb d4 40 3d
       -0.034141775 0.040017955 -0.046683133 0.047078114
0001c0 13 43 20 3d 81 e7 d2 3c ed 28 8a 3c fa fd 16 3d
       0.039126467 0.025745155 0.016865218 0.036863305
0001d0 e8 9f 14 3d 0c 56 1e 3c b6 4e 4b 3c af 71 1f bd
       0.03628531 0.00966407 0.012408903 -0.038926776
0001e0 a2 6c 2b 3b 23 77 7d bb 1c 5f 86 bc ba 90 bf 3b
       0.002615728 -0.0038675747 -0.016402774 0.00584611
0001f0 69 17 4d 3d f1 dd 38 3d 4a a6 0c 3d 55 f5 8b 3d
       0.050071154 0.045133535 0.034338273 0.06833903
