models/exported/model_state_dict.pt (torch, 358488 bytes, 31 tensors)

model.layers.0.weight f4 [64, 20]
000000 d6 34 38 3e 79 be 44 3e 6e 72 76 bd f8 f4 26 3e
       0.17988905 0.19213285 -0.060167722 0.16304386
000010 ca a7 23 bd 9d 2d 54 3d 8f a1 ee bd c9 8b f1 3d
       -0.039954938 0.051801313 -0.116519086 0.1179424
000020 cd e2 52 3e 48 ee 20 be 03 fa 3e 3e c3 ab e9 3c
       0.2059433 -0.15715897 0.1865006 0.028524285
000030 3b 31 32 3e bf 0d 18 3d fe 3d cd 3d b6 04 33 bd
       0.17401592 0.037122484 0.1002159 -0.043705665
000040 eb 82 39 3e 48 cc 23 3d 5f 30 e5 bd c1 61 3d 3e
       0.18116347 0.03998974 -0.11190867 0.18494321
000050 20 28 b5 bd 48 ee 06 bc 1e 59 ac bd fe 44 19 3e
       -0.08845544 -0.008235522 -0.08415435 0.14967725
000060 a4 a3 25 be 41 56 ae bd 9e 76 67 bd b1 21 07 be
       -0.16175705 -0.085125454 -0.056509607 -0.13196446
000070 e8 79 12 3d 66 c6 4f be 96 5f 55 3e 0d de 31 be
       0.03576079 -0.20290527 0.20837244 -0.17369862
000080 2d da 3f 3e e2 45 61 3d 1b 6a 87 bd e0 cc 0b 3e
       0.18735571 0.054998286 -0.06612035 0.13652372
000090 4d 8a 4b 3d 77 1c 4b 3e 12 2b fe 3c 32 a1 07 be
       0.04969244 0.19835077 0.031026397 -0.13245085
0000a0 24 57 92 3d 6d 66 5d bd a6 bc a3 3d 8a ad 68 3e
       0.07145527 -0.05405276 0.07994966 0.2272245
0000b0 af de 0f 3e e0 a1 ba bd 3b a1 eb 3d cf 18 90 3d
       0.14049791 -0.091129065 0.11505362 0.07035982
0000c0 4e 67 ff 3d 1b bd 04 be d0 e8 70 be 43 fd 6d bd
       0.12470876 -0.12962763 -0.23526311 -0.058102857
0000d0 fa 36 24 be df ad 42 3e 23 dd 4e 3d 1f d6 f8 3d
       -0.16036597 0.19011639 0.05050386 0.12150215
0000e0 28 59 a7 3d 5f f8 38 3b 1f ea 24 3e fc 71 e5 bd
       0.08171302 0.0028224213 0.16104935 -0.112033814
0000f0 ea 1b e7 3c ec 93 1c be 98 7b 73 3d 9b 98 df bd
       0.028211553 -0.15290803 0.05944404 -0.10917779
000100 bd 22 a9 3d f4 09 41 bd b7 21 34 3e 0d bc 29 be
       0.08258579 -0.047128633 0.17590986 -0.16575642
000110 fc 27 f4 bd bd 51 09 be 8b 05 44 3e 7e 2f 2c 3d
       -0.11921689 -0.13410087 0.1914274 0.04203748
000120 2c 7b 6a 3e 70 de 3d be 9e 18 6d be 29 e1 57 be
       0.22898549 -0.18541884 -0.23153922 -0.21081986
000130 2e a9 0b be 16 ed b6 3d 0f 5d 90 3d 09 02 00 3e
       -0.13638756 0.08931939 0.070489995 0.12500776
000140 5b 23 0b be 5f 87 05 be c4 6e 20 3e 1d a7 0b 3d
       -0.13587706 -0.13039921 0.15667254 0.03409492
000150 be b8 eb 3d 68 56 ff bc 7a 30 2a 3e 3b d3 86 bd
       0.11509846 -0.031169131 0.16620055 -0.06583258
000160 34 48 07 be 22 0c b8 3d 94 6f ae 3d 47 4c 6b 3d
       -0.13211137 0.08986689 0.085173756 0.05744579
000170 29 f5 e8 3d 0e c8 31 3e 61 54 fe bd 3b 6d 77 3a
       0.113748856 0.17361471 -0.12418438 0.0009438579
000180 42 00 3e 3e 90 49 5a bd 3f 1f 28 bd b1 ed 9f be
       0.18554786 -0.05329281 -0.041045424 -0.31236032
000190 81 bf 36 be 71 f6 7a 3d e9 3d a1 3c 8c b3 13 be
       -0.1784649 0.06127018 0.019682841 -0.1442396
0001a0 ce d6 35 bd cf 5a 16 be 15 b4 0f be eb eb e1 bd
       -0.044394307 -0.14683078 -0.1403354 -0.11031326
0001b0 d5 bc 79 be cf 84 0b be 1c 95 8b 3e ca 7b 48 3d
       -0.2438844 -0.13624881 0.272622 0.04894618
0001c0 2b 5b ad 3c 91 ee 4e be b5 4b c8 bd a1 ee 9d bd
       0.021161636 -0.20208193 -0.09780065 -0.077115305
0001d0 2c 6d 3f bc 7c 9d 42 be 0e 7a 40 bd ec 0b 58 be
       -0.011683743 -0.19005388 -0.0469914 -0.21098298
0001e0 1f 89 94 3c eb a5 aa bd 37 eb e5 bc 51 42 fd bd
       0.01813179 -0.083324276 -0.02806626 -0.123661645
0001f0 00 27 0b be f6 da 05 be 4f ac b6 bd ec 5e 27 be
       -0.13589096 -0.13071808 -0.08919584 -0.16344804
000200 f6 c9 50 3e ce 2b 38 bd a8 f3 37 3e 44 51 a1 3d
       0.20389542 -0.04496365 0.17964041 0.07876828
000210 f2 6b 30 be 93 65 1d 3e f7 f4 97 bd 38 35 9e bd
       -0.17228678 0.15370779 -0.0741977 -0.077249944
000220 91 f9 2c be 7b 6a 64 be 25 4d 52 3d 51 08 77 be
       -0.16892077 -0.22306244 0.051343102 -0.24124266
000230 32 e3 ae 3d 04 ab 52 be e0 f0 12 3e 4b 2e 39 be
       0.08539428 -0.2057305 0.14349699 -0.18084066
000240 8e dd 24 bd ed bc c3 3c 29 d7 bd 3d 0b 79 27 3e
       -0.040250354 0.023893798 0.09269554 0.16354768
000250 7b 2f 4e 3e a9 d6 4c be f4 04 09 3d 9f 34 e2 bd
       0.201353 -0.20003761 0.03345199 -0.11045193
000260 d5 e9 d9 bc fd e7 42 be 7b 2e 39 3e 95 5b 37 be
       -0.026600758 -0.19033809 0.18084137 -0.1790603
000270 14 5b ef 3d 49 58 61 3d 99 c7 4c 3d d7 3c 36 be
       0.11687294 0.055015836 0.04999504 -0.17796646
000280 38 aa 65 3e d1 b0 81 3d 30 dc 11 3d 5a 84 1a be
       0.22428215 0.06332553 0.035610378 -0.1508955
000290 c8 d1 eb 3d eb ea 9e bc 0e bf c3 bd 51 dd 5c 3e
       0.11514622 -0.019399127 -0.09557925 0.215688
0002a0 82 aa 91 3d 45 93 e0 bd 35 31 da bd 71 db 99 3c
       0.071126 -0.109655894 -0.10653917 0.018781396
0002b0 c2 7e 15 3e ce 38 31 bd 3f ac f7 bd 58 c7 71 bd
       0.14599136 -0.043267064 -0.120934 -0.059028
0002c0 a4 de 14 be 63 44 bf 3d 9e 32 38 3e ee 51 7f be
       -0.14538056 0.093392156 0.17988059 -0.24933597
0002d0 ea 43 39 3d 99 e9 be 3d 20 2f ab 3c 5c 08 cf bd
       0.045230784 0.09321899 0.020896494 -0.10109016
0002e0 12 8e e0 3d d3 b7 c2 3d 77 ea 82 3d 90 95 8a bd
       0.10964598 0.09507718 0.06392377 -0.06766808
0002f0 1b f6 87 bd f1 16 be 3a 63 c2 72 bd 0a bd b4 bd
       -0.06638738 0.0014502687 -0.059267413 -0.08825119
000300 b8 62 0a 3e eb 78 2d 3e 36 84 2c bd 8d dd a2 bd
       0.1351422 0.16940658 -0.042118274 -0.07952414
000310 59 9d 98 bb 34 a0 13 bd 4a 3b 0b 3d 9b 31 78 bd
       -0.004657429 -0.036041453 0.03399209 -0.060594182
000320 64 8c 6a be 01 48 e4 bd 59 66 24 3e 96 7a e6 3d
       -0.22905117 -0.11146546 0.16054668 0.1125385
000330 1a c7 18 bd 5a 95 27 be 41 82 28 be 2b 2f 2e be
       -0.037299253 -0.16365567 -0.16455938 -0.1701018
000340 10 12 cb bd ab 56 3f 3d 88 75 eb 3d e5 ed 0a 3e
       -0.099155545 0.046713512 0.11497027 0.13567312
000350 c7 55 65 be b1 0d 27 be 7e d9 80 bd 9c 37 80 3e
       -0.22396003 -0.16313817 -0.06291483 0.25042427
000360 2e c0 be 3b 4d 27 b1 bd d2 b7 84 3d 9b ed ff bb
       0.0058212494 -0.08650074 0.064803734 -0.007810307
000370 77 0d 1e be 9e c5 2b 3e 24 35 a8 bd 9f e0 65 bc
       -0.15434824 0.16774604 -0.08213261 -0.014030605
000380 19 7f 6d be ab 26 1e 3e 8c 9f 41 3e 8c 62 ea 3d
       -0.23193015 0.15444438 0.18908519 0.114445776
000390 6d 3e 29 be 1f be 5c be 8f ce 25 be 52 68 4c 3e
       -0.1652772 -0.215569 -0.16192077 0.1996167
0003a0 8d d1 c8 3d f8 0d 46 3e 6e 1d 0c 3e 76 c5 b6 3d
       0.09805594 0.19341266 0.13683102 0.089243814
0003b0 1c 6c 39 bc e7 6a 28 be 54 19 30 be 66 d8 26 be
       -0.011317279 -0.1644703 -0.17197162 -0.16293487
0003c0 8b ff 12 3e b3 8a 9c bd 83 1c 0f bd b9 2b 16 be
       0.14355294 -0.07643642 -0.0349393 -0.14665116
0003d0 e9 59 3d 3c d2 45 01 be bc 6c 0b be 19 09 48 3d
       0.011557081 -0.1262429 -0.13615698 0.0488368
0003e0 28 03 68 bc b2 9c 2c 3e 82 8a 7d bd 6e d5 3c be
       -0.014160909 0.1685665 -0.06189967 -0.18440792
0003f0 63 b6 51 3c 09 87 9f bd 19 a6 6f bd fb 06 72 be
       0.012799832 -0.07789428 -0.058508012 -0.23635475

model.layers.0.bias f4 [64]
000000 e2 0f 2f bd 16 ee 6e bc af da af bc 2e 9d 6c bd
       -0.042739756 -0.014583131 -0.021466581 -0.057767086
000010 1a f9 b4 bc 09 8f 88 ba 1e 2e be 3b 69 2b 2e bc
       -0.022091437 -0.0010418604 0.0058038374 -0.010630467
000020 cc 5f 0f 3d e2 ca 4e 3c a7 ad 03 3e b9 88 a2 3d
       0.03500347 0.012621613 0.12859212 0.07936234
000030 bf c6 40 3d 43 08 5f 3c 34 52 82 3d a5 0f ad 3d
       0.04706454 0.01361281 0.06363335 0.084502496
000040 89 65 47 bd 53 2d 1d be af 88 bf 39 b8 17 7b 3d
       -0.048680816 -0.15349321 0.00036532196 0.061301917
000050 e9 4d 92 3c 8e ef 8e 3c 63 74 70 bc 26 66 80 3d
       0.017859416 0.017448213 -0.014676186 0.06269483
000060 94 98 5a bd 67 22 1d 3d f3 97 6e 3d 03 22 d3 bd
       -0.053368166 0.038362887 0.05825038 -0.103092216
000070 66 64 56 bc 25 35 cf ba ad 4e 61 3d f3 2f 13 3d
       -0.01308546 -0.0015808685 0.05500667 0.0359344
000080 96 fb 46 ba 11 ed bd bb ad 94 8a 3d 18 6b 35 bd
       -0.000759059 -0.005796083 0.06766639 -0.044291586
000090 b3 bd b0 bc 64 c5 17 3d 7c d3 ac bd bf 29 3e 3d
       -0.02157483 0.03705348 -0.08438775 0.04642653
0000a0 8c d2 83 bd 4e dd 2a bc 1f 82 19 3d 6d 46 c2 3c
       -0.06436643 -0.01042874 0.03747761 0.023715222
0000b0 6f 7f c9 bd 55 f0 09 be 35 1e 9c 3d 90 6d bb 3b
       -0.09838759 -0.13470586 0.07622949 0.005719848
0000c0 2c 66 d4 bd 93 62 86 3d b4 34 18 be 44 3a 84 3b
       -0.1037105 0.0656177 -0.14863855 0.004035266
0000d0 5d 22 ff 3d c3 fd 17 3d 5c 3b 82 bd 71 bf 9a 3d
       0.12457726 0.03710724 -0.06358978 0.07556046
0000e0 63 eb d3 3d 4e e4 00 bd 6b 52 a3 3d 09 41 b9 bc
       0.10347631 -0.03146773 0.07974704 -0.022614019
0000f0 29 e4 0d bc 2a 7e 24 bd d7 2f 7b 3c bb 8f 85 bb
       -0.008660355 -0.040159382 0.01533123 -0.004075972

model.layers.1.weight f4 [128, 64]
000000 cb e7 ca ba 78 bb 4f bd 71 eb 7a bd 64 51 18 3d
       -0.0015480457 -0.050715894 -0.06125969 0.037186995
000010 db 2a 85 bd e5 93 98 bb 7e 87 c0 3c b8 64 db bc
       -0.06502315 -0.0046563023 0.023502108 -0.026781425
000020 3a 18 c2 3d 8d 15 12 3d 7a 2b a9 3d 30 05 9d bc
       0.09477277 0.035665084 0.082602456 -0.019167513
000030 1c 4f 3f bd 47 cc fc 3d c2 39 f1 3c e4 a0 27 bd
       -0.046706304 0.1234365 0.029446486 -0.04092492
000040 42 df 4c bd be 05 90 3c e7 9c de bd ab 89 8b 3d
       -0.050017603 0.017580863 -0.108697705 0.068133675
000050 65 de df 3d d5 3c ef bd fb 6a b8 bd 35 2c f8 bc
       0.1093109 -0.11681525 -0.0900478 -0.030294517
000060 85 be 02 3e ca ea 13 3e b6 59 c1 b9 95 7e df 3d
       0.1276799 0.14445034 -0.00036878668 0.109128155
000070 f3 54 58 bc 0e e5 02 be ab a2 88 3d 63 28 91 3d
       -0.013203847 -0.1278269 0.066716515 0.07087781
000080 98 d6 ef 3d 5e 56 1a bc b4 b3 b1 3d 93 c0 8c 3d
       0.117108524 -0.009420006 0.08676854 0.06872668
000090 92 e7 ab 3d 41 86 01 be 63 26 dd 3d 4d 87 e5 bd
       0.08393778 -0.1264887 0.10798337 -0.11207447
0000a0 51 23 df 3d ed 7b 05 3d 30 12 a3 bd 80 57 e1 3c
       0.10895408 0.032588888 -0.07962453 0.027507544
0000b0 1b 0b 1c bd 64 73 ee bd 45 b7 98 bc 06 35 ce 3c
       -0.03809653 -0.11643103 -0.018642077 0.025171768
0000c0 3f 06 c0 3d 0b da 42 bd e6 0b 8a 3d c5 86 01 3d
       0.09376191 -0.047571223 0.06740551 0.031622667
0000d0 a3 48 e8 3c 60 0d 83 3c 38 28 b1 bd e0 98 da bd
       0.028354948 0.015997589 -0.08650249 -0.1067369
0000e0 19 f8 4a bd ca 5a 19 be 72 14 83 bd 23 d3 ff 3c
       -0.04955301 -0.1497604 -0.06400384 0.031228608
0000f0 18 96 ba bd 66 a1 77 bd 3a a4 6a b9 c8 51 cc bc
       -0.09110659 -0.060456656 -0.00022377158 -0.02494134
000100 40 d4 bd bd 59 a7 fd 3c bb dd 1a bd 15 ec 35 3d
       -0.09268999 0.030963587 -0.037809115 0.0444146
000110 41 ca c5 3c d1 a8 58 bd c9 bc b6 bc dc e3 95 3c
       0.024144294 -0.05289537 -0.022306817 0.018297128
000120 7f a7 3b bd 42 f9 0b 3d 80 e0 e3 bc 7c eb 01 3d
       -0.045814034 0.034173258 -0.02781701 0.031718716
000130 f3 d3 67 3d 86 cb 02 3e bf 1c 0f 3c 3d db df bd
       0.056598615 0.1277295 0.008734881 -0.10930488
000140 dc 1b 94 3d fe 1a ca bd 16 b4 d4 bb ab 8c e3 bb
       0.07231876 -0.098684296 -0.0064911945 -0.006944259
000150 4e b6 d8 bc 5f 02 87 bd f7 24 c5 3d 61 88 d5 3d
       -0.026454117 -0.06592249 0.09626191 0.10426403
000160 18 64 40 3d 0d 1e 09 3e 47 a0 07 be c9 84 2e bb
       0.046970457 0.1339037 -0.13244735 -0.002662944
000170 76 4d b0 3d 70 b2 74 3d 15 a9 8d bd 99 db 90 3d
       0.086085245 0.059740484 -0.069170155 0.07073135
000180 ab bb c6 bd 28 99 ef bc e2 9d 37 bd 60 ce fc bd
       -0.097037636 -0.029247835 -0.044828303 -0.123440504
000190 30 b7 06 be d3 72 d3 bd ca 01 8a 3d 20 e2 08 3d
       -0.13155818 -0.10324635 0.067386225 0.033418775
0001a0 da e3 00 be b7 11 d7 bc 7a d3 ac 3c 2b 48 00 be
       -0.12586918 -0.026253564 0.021096934 -0.1252753
0001b0 97 a0 3a 3d 03 3a c0 3d b4 a7 1c 3d cf 8f 98 bd
       0.045563307 0.09386065 0.03824587 -0.07449304
0001c0 c2 2c 5b 3c 30 06 79 3c a2 b9 88 3d 42 27 5c bd
       0.01337737 0.015199229 0.06676032 -0.053748377
0001d0 6b d5 c5 bd 2a 8d 09 3d ab b8 9c bc 0e ae 75 bd
       -0.09659847 0.03358189 -0.019131025 -0.059980445
0001e0 bd ba 9b bd d4 42 50 bd 35 61 a0 3d 18 2e 05 ba
       -0.07603977 -0.050844982 0.07831041 -0.0005080416
0001f0 0f 66 86 3d 1f ca a9 3d 8f 10 02 3d c4 ff af 3a
       0.06562435 0.08290505 0.031754073 0.0013427665
000200 d4 d5 88 bc ed 4a b2 3d b1 24 04 be 97 57 01 3d
       -0.016703524 0.08705697 -0.12904622 0.031577673
000210 7a d5 f4 bb 5e 9c 1a 3d da 63 84 3c ce 66 9c bd
       -0.0074717375 0.03774678 0.016160894 -0.07636796
000220 46 6e 8a bc d5 d5 a4 3d f6 c2 a7 bd 3d c8 93 bd
       -0.016898286 0.08048598 -0.08191483 -0.07215927
000230 e3 2c 91 bc 61 dc ce bc ab a4 2d 3d 6b 46 8d 3d
       -0.017721599 -0.02525157 0.042393368 0.06898197
000240 55 3e 29 bc 35 3a ce 3d 08 b5 44 bd 10 1e 80 bd
       -0.0103298025 0.10069696 -0.048024207 -0.06255734
000250 47 ef 85 bd e2 2f b2 bd 1b 01 d3 bd 91 22 25 be
       -0.06539779 -0.08700539 -0.10302945 -0.16126467
000260 e2 9b ef bd 79 60 a0 3d 1f 60 90 3d d7 4f f3 3d
       -0.11699654 0.07830901 0.07049584 0.118804626
000270 30 e0 f0 3d 66 ab 88 bc ab 43 e5 3a 6d 1c 84 bd
       0.1176151 -0.016683292 0.001749148 -0.06450734
000280 73 f0 0b 3c 2c 9a 12 be 07 49 8c 3d ad 2b cb 3c
       0.008541214 -0.14316624 0.06849866 0.0248011
000290 b3 13 1f 3d d6 40 d9 3c 72 2c c7 bd a4 a5 f2 3d
       0.038837146 0.026520174 -0.09725274 0.11848
0002a0 a4 9b 8d 3d 58 7e d8 3d c9 4d ec 3c ad 44 69 3d
       0.06914452 0.10570973 0.028845685 0.05695026
0002b0 0a be 89 3d 7e 8f 2f 3d ed e7 e3 3d ba 8e 96 bd
       0.067257 0.042861454 0.11128221 -0.07351442
0002c0 4c fb a9 3d 5c 04 b9 3c 0c cb 76 3d 85 2e 21 3e
       0.08299884 0.022585087 0.060252234 0.15740402
0002d0 e3 17 55 3d 62 c7 42 bd 3f be 27 bd 14 48 1c 3d
       0.052024733 -0.047553428 -0.040952917 0.038154677
0002e0 25 57 c6 3c ad 7d 58 bc 20 db bb 3d 79 bd a5 3d
       0.024211476 -0.013213557 0.09172654 0.0809278
0002f0 b0 4b c3 bd 26 6b 01 bd 87 33 20 bd f1 42 c2 bd
       -0.095359206 -0.031596325 -0.03911164 -0.09485424
000300 41 86 02 bc 22 ce 82 bc 33 5f b2 bd c8 98 22 bd
       -0.007966579 -0.015967432 -0.08709564 -0.039696485
000310 55 a4 a5 bc db 75 06 3e 6e 5e 91 3d 51 df 06 3e
       -0.020219961 0.13130896 0.07098089 0.13171126
000320 a6 5d 9e 3d d1 80 53 3d f9 42 e2 3c cb 21 5b bb
       0.07732706 0.05163652 0.027619826 -0.003343689
000330 25 50 84 bd 84 b3 39 bd 7c 87 72 bc fd a8 b3 bc
       -0.06460599 -0.045337215 -0.01480281 -0.021931166
000340 c6 b2 80 3d b0 bb b5 3c 87 b8 d8 3d 7c f3 7d 3d
       0.06284098 0.022184223 0.10582071 0.061999783
000350 ad 3c 70 bc 03 39 f1 bd b1 6a e1 bd c0 85 10 bd
       -0.014662904 -0.11778452 -0.11006678 -0.035283804
000360 51 71 3b 3d 2e 18 b0 3d ce d9 ab 3d b6 54 8e bd
       0.045762364 0.08598362 0.08391152 -0.06949751
000370 a2 d7 d6 3b 02 15 80 bd e1 29 b5 3c 31 52 83 3d
       0.006556467 -0.06254007 0.022114696 0.06412161
000380 1b 24 e6 bc 81 60 a4 bc 60 e2 67 bc ee 6e c5 3c
       -0.028093388 -0.020065548 -0.014153093 0.024100747
000390 b3 30 82 bd 6e aa c1 bd 67 ae 20 3d fd 41 23 bd
       -0.06356945 -0.09456335 0.039228823 -0.039857853
0003a0 29 31 a5 bd 5d 51 a5 3d 51 e3 0e 3d ab ca 25 bd
       -0.08066017 0.080721594 0.034884755 -0.040476482
0003b0 52 1c b3 bd 53 a8 3e bd a1 ef a6 bd e1 4b 20 3d
       -0.08745636 -0.046547245 -0.08151174 0.039134864
0003c0 db 13 c8 bc 61 a8 3d 3d 0f dd 93 bc 3f 60 fe 3c
       -0.02442353 0.046303157 -0.018049745 0.031051753
0003d0 7e dd 62 3d 5b 88 8c 3d bd 98 ab bd 89 8f 4d 3d
       0.055387013 0.06861945 -0.08378742 0.050185714
0003e0 c6 8d 60 3b c9 22 c4 bd 39 33 9e 3c e5 df 4d bd
       0.003426419 -0.09576947 0.019311534 -0.05026235
0003f0 e2 aa 8d bd 2b e1 ad bd 3b 14 69 bd c3 18 94 3d
       -0.06917359 -0.08490213 -0.05690406 0.072312854

model.layers.1.bias f4 [128]
000000 92 53 71 3d ac 7e 36 3d 21 07 05 3d 69 52 b0 3d
       0.05891759 0.044554397 0.0324775 0.086094685
000010 28 7f 41 3d 9c ca 1f bd c3 fa 0c bd 0e 97 92 bd
       0.047240406 -0.039011583 -0.034418833 -0.07157718
000020 3b 77 83 bd c7 51 0e bd a1 b4 66 3d 9c 4e a7 bc
       -0.06419226 -0.034745958 0.056324605 -0.020423226
000030 ce 23 06 bd 79 b8 37 bc 59 74 47 3d d0 1d 53 3c
       -0.03274899 -0.011213415 0.048694942 0.012885526
000040 d4 8f b9 bd 48 0d b4 3d c7 8c 40 3d 02 62 00 bd
       -0.09060636 0.08791596 0.047009256 -0.031343468
000050 aa 36 ee 3c 14 cc a9 bd b8 4b 98 3d 18 93 06 3d
       0.0290788 -0.08290878 0.07436317 0.032855123
000060 ee ca 0d 3c 7f 9f 2c bd e0 1d 3c 3d 3f d3 01 3c
       0.008654339 -0.042144295 0.04592693 0.0079239
000070 16 4a d0 bd 26 26 58 3d dc 48 78 3c 59 89 87 bd
       -0.10170381 0.052770756 0.01515409 -0.06617994
000080 8e da ba 3d 5b 7e 4b 3d fb ed 61 3b 0d 26 cf bc
       0.09123717 0.04968105 0.0034474123 -0.025286699
000090 99 12 b1 bd b3 4d 87 bd c2 bd 00 3d 52 4e b2 3c
       -0.08646125 -0.06606617 0.031430967 0.021765862
0000a0 97 90 e5 bd 99 f2 77 3d a5 1e 85 3c c0 f7 b2 3b
       -0.11209219 0.060534094 0.016249964 0.005461663
0000b0 05 f2 23 bd a1 8b a9 bd 11 bf c3 bd 1d d9 aa 3d
       -0.04002573 -0.08278585 -0.095579274 0.08342192
0000c0 02 50 03 3b fd a4 a0 bb b7 1b a9 bd 3b b9 90 bc
       0.0020036702 -0.0049024806 -0.08257239 -0.01766645
0000d0 cc c4 68 bd 4c 35 98 3c 72 a4 98 bd 77 4a 4a bd
       -0.056828305 0.018580101 -0.074532405 -0.04938742
0000e0 ed e0 b8 bd 88 0a 8b bd 56 ee 02 bd 4c b9 a8 bc
       -0.09027276 -0.06789118 -0.031965576 -0.020596169
0000f0 a9 5e 8b bd 33 28 1c 3d 02 2d 10 3c 56 a5 ba 3c
       -0.06805164 0.038124274 0.008799793 0.022783916
000100 81 45 f7 3c 9f 91 ce 3c 77 a1 f0 bd b4 bd de bc
       0.03018451 0.025215922 -0.11749547 -0.027190067
000110 f6 7f 00 3e 4d 54 3c 3d d1 2c 2f 3d 5b 79 c6 3d
       0.12548813 0.045978833 0.04276735 0.096911155
000120 af ed 13 bd 92 87 82 bc b3 55 54 bc e6 9a 26 3c
       -0.036115345 -0.015933786 -0.012959885 0.010168767
000130 66 b3 c3 3d 6d d6 f7 bd 4d c6 e7 3c 73 5f 97 3d
       0.09555702 -0.12101445 0.0282928 0.07391252
000140 63 a8 7c bd b7 00 90 3d 50 6f bc bd 5b 37 d2 3c
       -0.061684024 0.07031386 -0.09200919 0.025661161
000150 a2 75 bb bd b4 65 af bc 00 45 6c 3c 9b 39 1e 3d
       -0.09153296 -0.0214108 0.014420748 0.038629156
000160 2c 54 e1 3c ac 3b e3 bc 34 66 d2 bd 69 b3 01 3d
       0.027505957 -0.027738415 -0.102734 0.03166524
000170 bf 85 dd 3d 33 3a b6 bd 5d 9b a9 bd 8a e8 07 3c
       0.10816526 -0.08897819 -0.08281586 0.008295188
000180 d3 73 b5 3c 0a cb 0a 3d e2 d3 8a 3d 99 a2 3d 3c
       0.022149956 0.03388504 0.06778695 0.011574411
000190 b8 2c f7 bc 8d 2b f7 bd 42 fe c6 bd d1 91 6d bd
       -0.03017269 -0.120688535 -0.097164646 -0.05800039
0001a0 c9 2d 64 3d ac 41 cd 3d a0 60 c0 3d 20 0b 9c 3d
       0.055707727 0.100222915 0.0939343 0.076193094
0001b0 41 9f 26 ba 11 29 8b 3d 47 34 d9 3c 03 24 77 bd
       -0.0006356128 0.06794942 0.026514186 -0.060337078
0001c0 7c 47 5c 3c 9d f9 b0 bd e8 61 b5 3d 80 b5 43 3d
       0.013444778 -0.0864136 0.08856565 0.047780514
0001d0 42 a1 a6 3d 2f 49 05 bd 70 de 5f 3d 30 aa 05 3d
       0.08136226 -0.032540496 0.054655492 0.032633007
0001e0 ed c0 95 3b 0c 24 49 bb cb 15 a5 3d ee 6c ad bc
       0.0045701177 -0.0030691652 0.08060797 -0.021170106
0001f0 4a 4f a5 3d 25 0f 42 3d 00 7f 71 bd b5 76 87 bd
       0.08071764 0.047377724 -0.058959007 -0.066144384

model.layers.2.weight f4 [256, 128]
000000 65 8c 82 bd 71 80 19 3d ac 95 c4 3d 2c c7 61 bd
       -0.063744344 0.037476007 0.0959886 -0.055121586
000010 da 2f d5 bd 53 eb 10 3d ed 64 1d bd 54 32 65 bd
       -0.104095176 0.035380673 -0.03842633 -0.0559562
000020 63 4c b0 bb 0e d2 35 bd 7c 8e d8 3c 2c e2 3a bb
       -0.0053801998 -0.044389777 0.02643513 -0.0028516157
000030 e4 51 a1 bd 47 93 d0 bb 15 e3 4d bd 4c b8 63 3d
       -0.078769475 -0.006365213 -0.05026539 0.05559568
000040 83 dd a8 3c 98 29 06 3d 62 55 56 bd 77 eb d6 bc
       0.020613438 0.03275451 -0.05232752 -0.026235325
000050 9a 31 b9 bd 02 aa 89 bd 6e 7d a6 bd 27 16 aa bd
       -0.09042664 -0.067218795 -0.081293926 -0.083050065
000060 98 f8 9e 3d a6 09 78 bc 89 90 98 3b 3b d7 3f 3d
       0.07762259 -0.015139019 0.004655902 0.04683612
000070 88 d7 01 3d 07 60 80 3d 78 41 d9 bd 08 e0 b9 3d
       0.031699687 0.06268316 -0.1060819 0.09075934
000080 87 c5 06 bd 4d d0 95 bd e1 b7 29 3d e2 16 a6 bd
       -0.03290322 -0.07315121 0.041435126 -0.08109833
000090 45 b1 1e bd aa fe 65 3d d8 82 43 3d b5 35 83 bc
       -0.038743276 0.05615107 0.047732204 -0.01601682
0000a0 f1 30 39 3c 68 11 a5 bc c9 50 a5 3c 50 41 b2 bc
       0.011303172 -0.020149902 0.020180123 -0.021759659
0000b0 17 0a 29 3d 64 19 9d 3d 76 24 89 bd ee 2c 3a bd
       0.041269388 0.076708585 -0.066964075 -0.045453005
0000c0 36 14 87 bd 01 68 d9 bc f2 f0 72 bd 97 8c b3 3d
       -0.06595652 -0.02653885 -0.059311815 0.0876705
0000d0 74 fe b2 3d ea 7d 8c 3d 94 63 90 bd 06 19 d0 bc
       0.08739939 0.06859954 -0.07050243 -0.025402557
0000e0 0c 8e 26 bd c4 5a 8d bc b5 10 bc 3d 57 59 fa 3c
       -0.04066281 -0.017255194 0.09182874 0.030560179
0000f0 e6 bc 80 3c 7c f2 d2 bd cc 99 87 3d d3 cb 90 3d
       0.015715074 -0.103001565 0.06621131 0.070701264
000100 89 f2 c0 bb 32 7c 9e 3d e1 ff 3c 3d 52 f4 54 bd
       -0.0058882874 0.07738532 0.046142463 -0.051990815
000110 6a ee 33 bd db bd 99 3c cf 7b 90 bd b1 22 ac bd
       -0.04392854 0.018767288 -0.070548646 -0.08405054
000120 a4 74 5b 3d dc aa 18 3b ca 24 5a bd 71 26 5b bd
       0.053578034 0.00232952 -0.05325774 -0.053503457
000130 20 1a 87 3b 31 74 a2 3d aa c3 02 3d 8e 7c a7 bd
       0.0041229874 0.07932318 0.03192488 -0.08178054
000140 57 c2 99 bc d2 e4 62 3d a6 89 51 3d 2a 94 e4 bc
       -0.018769426 0.055394 0.051156662 -0.027902681
000150 62 e4 8f 3d 0d bb c9 3c 8c df 80 bc fe 54 7f 3d
       0.070259824 0.024625326 -0.015731595 0.062336914
000160 b0 8f 2d 3d a2 c2 1d bd a0 9b a6 bc 2e 57 7f 3b
       0.04237336 -0.038515694 -0.02033788 0.0038961875
000170 9a 6b 87 3d 59 e6 14 bd 05 66 4d 3d 65 de 64 bc
       0.0661232 -0.03635249 0.05014612 -0.013969039
000180 8b 64 15 bd 17 45 82 bd 98 1f aa bd a3 cc 3c 3c
       -0.03647284 -0.06360834 -0.08306807 0.011523399
000190 a9 b3 f4 bd cc 7c 82 3d 3d d1 4c bd 93 04 25 3d
       -0.1194833 0.06371459 -0.050004233 0.040287565
0001a0 05 c0 dc bd 74 ee e3 3b d7 ab 12 bd 15 6a 7d 3d
       -0.10778812 0.006955916 -0.03580841 0.061868746
0001b0 29 c1 29 3d b2 2b 81 bd 90 11 c3 bd d7 f2 01 3d
       0.041443978 -0.06307162 -0.09524834 0.03172573
0001c0 c7 02 93 3c 1b 80 8f 3c e7 fb 39 3d f9 70 c4 3c
       0.01794566 0.01751714 0.04540625 0.02397965
0001d0 9e 08 9a 3d f9 fb 01 bc d6 19 90 bc 18 65 15 bb
       0.07521175 -0.00793361 -0.017590445 -0.0022795852
0001e0 cc f6 a9 bd 12 c2 68 bd 47 8b 83 3d 34 70 21 bd
       -0.08299026 -0.056825705 0.064230494 -0.039413646
0001f0 ce 4a 8b bd ab cf 5e 3d 8d 41 84 bc 48 7d 00 3d
       -0.06801377 0.054397266 -0.016144538 0.031369478
000200 98 0d 2c 3d 4d 35 cf bd 9a 2b f3 bb 10 65 42 bd
       0.04200515 -0.10117588 -0.007420969 -0.047459662
000210 81 c6 b5 3d 19 9a b4 bc 52 8f 97 bd 4c 3b 45 bc
       0.08875752 -0.022046136 -0.07400383 -0.012038063
000220 d0 10 0c bc 88 e6 eb 3c c0 f9 88 3d 4f f3 8a 3d
       -0.00854893 0.02879645 0.06688261 0.06784689
000230 d7 ba 75 ba c4 72 94 3d a6 40 40 3d ed 67 66 3d
       -0.00093738496 0.07248452 0.046936654 0.056251455
000240 c6 a9 8f bd f3 da 40 bc 94 a3 25 bd 04 72 52 bd
       -0.070148036 -0.011770952 -0.040439203 -0.051378265
000250 98 65 43 bd 6e 45 8d 3d 15 6b ce 3c 60 dc 91 3d
       -0.04770431 0.06898008 0.025197545 0.07122111
000260 3e 8f c3 3d 23 46 8b ba 97 f7 1e 3e 37 9b ae 3c
       0.09548806 -0.0010625761 0.15524136 0.021314247
000270 a1 f1 95 bc 90 c0 43 bd fa 15 c4 3d d5 d4 48 3d
       -0.018303694 -0.047791064 0.09574504 0.049031097
000280 5a 92 6a 3d 30 4c 3b bc a1 90 e2 bd f8 36 2a 3c
       0.057268478 -0.011431739 -0.11062742 0.010389082
000290 cb 2f f4 3c 32 b7 4b bd bd 60 05 3d c1 08 27 bb
       0.029807946 -0.049735256 0.03256296 -0.0025487395
0002a0 5e 8e 06 3e 8b 20 d9 3c 65 5d 75 bd fe e3 9f 3d
       0.13140246 0.026504776 -0.05990352 0.07807158
0002b0 48 2f d3 3b 47 0b b5 bc 80 1a 62 3c f1 cf ab 3d
       0.0064448453 -0.022100104 0.013800263 0.08389271
0002c0 41 a5 59 3d c7 f0 88 bc 49 49 b1 3d 3b eb 1f bd
       0.053136114 -0.016716374 0.08656556 -0.039042693
0002d0 6e 0a d0 3d 67 9a 2b bd df 78 3f 3c a4 97 70 3d
       0.10158239 -0.041895296 0.011686533 0.058738366
0002e0 30 f7 d3 3c 4e 89 52 bc 6e ce 5b 3d 32 f6 57 3d
       0.025874704 -0.012850119 0.053663664 0.052725025
0002f0 15 ae d0 bd f2 a9 5b bc 60 98 91 bd f0 4f 5f bd
       -0.101894535 -0.013407217 -0.07109141 -0.054519594
000300 d5 a8 b3 3a ba f6 09 bd 16 09 0b 3b 2b e8 4b 3d
       0.0013706932 -0.033682562 0.0021215132 0.04978196
000310 fb 6e 94 3d 81 d0 ad bd fe 24 c3 3c b6 32 ce bd
       0.0724773 -0.084870346 0.02382135 -0.10068266
000320 4e 7f 61 bd b3 3d 95 3d ff 00 af 3d 31 f2 49 bd
       -0.055053048 0.07287159 0.08545112 -0.049303237
000330 af 36 35 bd d7 36 90 3d bf a3 90 bd 6e 8e ad 3d
       -0.044241603 0.0704171 -0.07062482 0.08474432
000340 fb 26 d9 3d 00 f1 30 3d ae e6 88 3c 22 33 9c 3c
       0.10603138 0.043198586 0.01671156 0.01906735
000350 e8 f9 3c bc 8e 26 97 bb c8 d8 14 3d e7 76 a1 3d
       -0.011534192 -0.0046127504 0.03633955 0.07884007
000360 40 c8 69 bc 4f cd 16 3d 81 94 8e bd 6b aa 5b 3d
       -0.014268935 0.03681689 -0.069619186 0.05362932
000370 cb 21 40 bd 0d 39 56 bd 87 0e 93 3d 7b 63 0e bd
       -0.046907227 -0.0523005 0.07180505 -0.03476284
000380 a8 b0 17 bd f0 4c c9 3c 3d 57 d0 3d 4d 67 af 3d
       -0.037033707 0.02457282 0.101728894 0.08564625
000390 90 f1 12 3c b7 bd 87 3d 57 46 a9 3d 46 2e 64 bc
       0.008968726 0.06627982 0.082653694 -0.013927048
0003a0 4a fc 6a bd 8b 2b 02 3d 39 c9 2a bd 89 3f 85 3c
       -0.057369508 0.031779807 -0.041695807 0.016265647
0003b0 a9 b5 86 bd 59 ba 68 bd bb 59 c4 bd 1b 3c 82 bd
       -0.06577618 -0.05681834 -0.09587427 -0.063591205
0003c0 fa 6c c7 3d bc 7c bc bd c6 ae b7 3b 17 00 3a bb
       0.097375825 -0.09203479 0.0056055514 -0.0028381401
0003d0 43 07 8f bd 5b 02 08 bd 82 b6 1b 3d ad 35 92 3d
       -0.06983807 -0.03320537 0.03801585 0.07139144
0003e0 e2 c5 d7 bc e3 4e 85 bc 52 77 09 3d fe c0 89 3d
       -0.026339475 -0.016272968 0.03356106 0.067262635
0003f0 9b 23 8d 3d d4 b7 12 bd 68 26 63 3d 1b ba 7d bd
       0.06891557 -0.035819843 0.05545655 -0.061945062

model.layers.2.bias f4 [256]
000000 a8 b8 42 3c 94 be 4b 3d 2f a5 84 3d 8b 44 6b 3d
       0.011884846 0.049742296 0.06476819 0.057438415
000010 39 b1 58 3d 6a 02 40 3d 6f df 93 bd 2f d4 24 bd
       0.052903388 0.046877302 -0.07220351 -0.040241417
000020 1c d9 ce bc 7a ec 6c bd 55 90 c6 bc 5c ae 9e 3c
       -0.02525001 -0.05784271 -0.024238745 0.01937025
000030 c7 f1 c0 3c 69 64 c7 bc 55 a0 06 3d 2f 42 dd bc
       0.023552788 -0.024339871 0.03286775 -0.027009098
000040 61 94 f7 bc eb f8 8b 3b ab f0 7d bd 9b 6a e1 bc
       -0.03022212 0.0042716167 -0.061997097 -0.027516654
000050 3a bb a3 bc fc 13 c3 3c 99 dc 26 bd 03 10 33 3b
       -0.019986738 0.02381324 -0.040737722 0.0027322776
000060 e7 e0 3a bd b1 ff 80 3c 06 01 c2 3c 2c f2 0e 3d
       -0.04562464 0.015746923 0.023682129 0.03489892
000070 b2 5f 6c bd b7 e0 5b bd 31 8c 37 bd 80 f4 0b bd
       -0.05770845 -0.0536811 -0.04481143 -0.03416872
000080 08 98 63 3b 54 51 99 bc 6d db 94 3c 86 c8 37 3d
       0.003472807 -0.018715538 0.018171037 0.04486897
000090 55 a2 1b 3c 0d c8 8e 3c db 9c d6 3c c9 2d a7 bc
       0.009499152 0.017429376 0.026197841 -0.020407574
0000a0 19 3c ca 3c 84 12 c9 3c 96 02 d8 3c a7 4b 90 bd
       0.02468686 0.024544962 0.02636842 -0.070456795
0000b0 b6 bc 50 bd 08 18 a9 bc 93 dd 8e bd ff ed f2 3c
       -0.05096122 -0.020641342 -0.06975856 0.029654501
0000c0 18 36 8b 3d 84 3e a5 bc a7 0c 31 3d 2a cf 26 bd
       0.06797427 -0.020171411 0.043224957 -0.04072491
0000d0 60 48 da 3c c7 d0 2a 3c 72 23 71 bc bc 07 80 39
       0.02664584 0.010425753 -0.0147179235 0.00024419825
0000e0 76 a3 02 3d 17 fd 36 bd 24 08 11 3d 40 e1 07 bd
       0.03189417 -0.04467496 0.035408154 -0.0331738
0000f0 38 76 dd 3b 46 c5 55 3d d0 7a 9b bc 58 75 46 3d
       0.0067584775 0.052190088 -0.01897946 0.04845175
000100 4a ff 12 3c 0a d4 52 3d 57 fd 2e 3d 20 a4 be bb
       0.0089719985 0.051471747 0.042722072 -0.005817905
000110 20 5b 28 3d 01 7d 16 3c d7 94 73 bc fa ab 44 3a
       0.04110253 0.009185077 -0.014867029 0.0007502433
000120 c9 27 3c 3c c2 26 cf bc 59 ac b1 3c ef f4 b3 3c
       0.011484095 -0.025287036 0.021688627 0.02196738
000130 b3 75 66 ba 16 e8 fa bc 76 7e 84 3b be 16 2e bc
       -0.0008791342 -0.030628245 0.0040433956 -0.010625539
000140 55 63 07 bd 25 73 cb bc ca 63 48 bd 71 5f 1c 3c
       -0.033053715 -0.024835179 -0.04892329 0.009544239
000150 43 7b 1e 3d 1f 74 08 3d 8a 00 8a 3c 4e 48 fd bc
       0.03869177 0.033313867 0.01684596 -0.030918267
000160 7b db 07 3d 54 9b 2d 3d e7 bb f9 3a de c5 48 3d
       0.033168297 0.04238446 0.0019053192 0.049016826
000170 5e 6d e2 3c 17 75 78 3d e5 67 9b bc cd 46 47 bb
       0.027640041 0.06065854 -0.01897044 -0.003040719
000180 5e d9 3d 3d 48 53 49 bc ac 85 6a 3d 1d 62 36 bd
       0.046349876 -0.012287922 0.057256386 -0.044527162
000190 3c ab 4a bb c6 16 0a bc 11 14 87 bc a0 dc d8 3b
       -0.0030924818 -0.008428281 -0.01648906 0.0066180974
0001a0 12 a4 13 bd 06 78 57 bc 25 4c 26 bc 54 cb 53 bc
       -0.03604514 -0.013151174 -0.01014999 -0.012926895
0001b0 e3 f3 33 3b f2 04 6c 3c 6a eb a7 3d 9d c2 d6 bb
       0.00274586 0.014405476 0.081991985 -0.0065539614
0001c0 77 61 3b bd 5a 7b 21 bd 73 83 9a 3a c5 63 1a bd
       -0.045747247 -0.039424278 0.0011788442 -0.037692804
0001d0 6e 46 68 3d 44 ce b7 bc de f9 88 3a ad 30 0c bd
       0.056707792 -0.022437222 0.0010450443 -0.03422611
0001e0 b6 55 e7 3b c7 d4 1b bd e0 ad a3 bc 23 03 aa bc
       0.007059778 -0.038044717 -0.019980371 -0.020753449
0001f0 c5 6b 57 bd 2d f1 11 bd 70 50 ff bc 59 b5 c3 3b
       -0.05259301 -0.035630394 -0.031166285 0.005972546
000200 00 2a 32 3c 02 35 a8 3b 3f 39 b9 bc d5 2a 39 3c
       0.010874271 0.005133272 -0.022610305 0.011301716
000210 ce 25 bc bb da 97 2a bd d7 e5 3b ba a7 55 67 bd
       -0.0057418114 -0.041648723 -0.00071677327 -0.05647817
000220 0a 26 e3 3c 0a 9b 5f 3d 76 cc 31 3c de 00 7e bc
       0.0277281 0.054591216 0.01085197 -0.015503136
000230 85 44 ae bc 19 7a ac bb fe 81 2b bd 71 9d 7a 3d
       -0.021272907 -0.0052635786 -0.041872017 0.061185304
000240 45 8f 1c bc 77 d0 3c bd 8c 96 39 3d 99 ef 30 3d
       -0.0095556425 -0.046097245 0.04530959 0.043197248
000250 60 3c 4a 3d 94 91 f2 bc ab 57 9a 3c 89 8c c9 bc
       0.049373984 -0.029610433 0.018840631 -0.024603145
000260 1b be 42 3c 42 d6 1b bd 80 91 9b 3b d2 4a 8c 3d
       0.011886145 -0.03804613 0.0047475696 0.06850208
000270 19 47 19 3c dc da 90 bd 81 fc 26 3c 43 16 ac bb
       0.00935533 -0.07072994 0.010192038 -0.0052516772
000280 89 b7 89 bb f9 4e a3 3c db 69 5b bd db f0 29 3d
       -0.0042027873 0.019935118 -0.05356775 0.041489463
000290 45 7e 4c bd e8 f4 12 3d 50 56 78 bc e2 84 86 3c
       -0.049925108 0.035878092 -0.015157297 0.016420785
0002a0 31 82 23 3d 23 1c 2a bc 95 3c 3e 3c 07 42 92 3d
       0.039919082 -0.010382685 0.011611124 0.071415
0002b0 a7 1f 9a 3c e2 7f f0 3c 9e 4b e3 bc a8 9c 76 3d
       0.018813921 0.029357854 -0.027746018 0.060207993
0002c0 03 07 6f 3d 81 7e 13 bc 47 cc 3b 3d c2 79 aa 3c
       0.058356296 -0.009002329 0.04584911 0.020810012
0002d0 5e ae 34 3d a3 e3 17 bd 13 ee 17 3d e3 cc e9 bc
       0.044111602 -0.037082326 0.03709228 -0.02854008
0002e0 f2 7f 85 39 d9 8c a6 bc 3b 3b 01 3c 32 6a 99 bc
       0.00025463064 -0.020330833 0.007887657 -0.018727396
0002f0 1a 7e 86 bc c6 c7 87 bc da 2f 5d 3d f2 2a c3 3c
       -0.016417552 -0.016574752 0.054000713 0.023824189
000300 86 be 26 bd b1 7d 8c 3c 3d b9 c4 bc e6 e1 84 3c
       -0.04070904 0.017149778 -0.02401411 0.016220998
000310 5f d2 58 3d 55 91 ef 3c ec 2a 3a bd 27 ca 38 3d
       0.052935 0.029244104 -0.04545109 0.045114662
000320 f4 7f 48 bd bd 59 a6 bc ab 4c b5 3c 14 77 93 3c
       -0.04895015 -0.020306462 0.022131285 0.018001117
000330 fc 59 dc bc 9c 1e 3f 3d f6 4f 27 bd c2 05 93 3d
       -0.026898377 0.04666005 -0.04084774 0.071788326
000340 b3 ff e4 3a 85 12 67 3d 0a 84 db 3b 6f 3b dd 3a
       0.0017471224 0.056414146 0.00669909 0.0016878675
000350 43 88 7e bc 0d 62 e6 bc de e4 39 bd 52 24 63 bd
       -0.015535417 -0.028122926 -0.04538428 -0.05545456
000360 66 51 cf 3b d3 08 bc 3c 08 e9 dc 3c 6b 2a 0e 3d
       0.006326842 0.022953426 0.026966587 0.03470842
000370 d8 c5 7e bd 3c 48 02 3d c1 13 db bc 3d ee 0e bc
       -0.062200397 0.03180717 -0.026742818 -0.008723793
000380 e2 46 53 bd ef cc 6a bb 64 28 58 3c 10 e6 6b 3d
       -0.05158127 -0.0035827716 0.013193224 0.05759245
000390 50 27 94 bc f7 22 8a 3d d2 d9 04 3d a2 ca 54 bd
       -0.018085152 0.0674495 0.032434292 -0.05195106
0003a0 21 0b 4b 3d 65 bc 0a 3c a9 0b 9d 3c 5b 60 42 3d
       0.04957116 0.008467768 0.019170599 0.047455173
0003b0 2b 5d 50 bd 76 57 b5 3c a2 dd eb 3c 34 37 6b bb
       -0.050870102 0.022136431 0.028792206 -0.0035891058
0003c0 c8 7b 57 3b bf ad 07 3c a2 54 dd 3c 90 ae 7f bc
       0.0032880176 0.00828117 0.027017895 -0.015605584
0003d0 f9 01 58 3d 14 fa ef 3b e5 c5 b3 bc 29 42 8c 3a
       0.052736256 0.007323513 -0.02194495 0.001070087
0003e0 d1 7c 82 3d e0 d1 aa 3c 29 3c ea 3c c3 23 5a bd
       0.06371463 0.02085203 0.02859314 -0.05325676
0003f0 4b c6 9c bc b1 6b 17 bd 77 ab 55 3d 27 e4 1f 3d
       -0.019137522 -0.036967937 0.052165475 0.039035942

model.layers.3.weight f4 [128, 256]
000000 63 94 4c 3a 6b 01 92 3d e0 62 4d 3c d6 8b 89 bc
       0.0007804094 0.07129177 0.012535781 -0.016790312
000010 11 56 33 bd 37 ea 76 3d 9c dd 33 3a 7d 88 9d bd
       -0.04378325 0.06028196 0.00068613305 -0.07692049
000020 ee ec ce 3b 71 ef 7e 3d 0c 92 d0 3c 5c ec e9 bc
       0.0063148653 0.062240068 0.025460266 -0.028555088
000030 07 2b d7 bc 2e e9 49 3d 7b 53 1d bd 8c 95 05 3c
       -0.026265634 0.049294643 -0.03840969 0.008153331
000040 63 33 af bd 3c 81 05 3d 51 40 34 bd 66 1a ac bd
       -0.08554723 0.03259395 -0.04400665 -0.084034726
000050 a4 00 8d bc ef 20 86 bb ea 90 9b bd 7b 6f ae bc
       -0.01721222 -0.0040932815 -0.075959995 -0.021293392
000060 0c c5 d8 bb 67 21 9b bd c4 68 df bc 0a 2f f5 bc
       -0.0066152867 -0.0757473 -0.027271636 -0.029929657
000070 59 fa f6 bc 89 62 bf 3c 17 3f 30 3d c0 d4 0d 3c
       -0.030148672 0.023362415 0.043028917 0.008656681
000080 10 ca 21 3d ec 37 49 3d d9 58 15 3d 7c 9c 58 bd
       0.039499342 0.049125597 0.036461685 -0.05288361
000090 80 5f 91 bd b6 88 1a 3d d4 25 77 bd 8a 59 5b 3d
       -0.07098293 0.037728034 -0.06033881 0.053552188
0000a0 ec 1f 81 bc 1d ad d8 bc e7 d0 45 bd e8 45 87 bc
       -0.015762292 -0.026449734 -0.048294928 -0.016512826
0000b0 96 66 51 bb 92 67 f8 3c 6e f1 a1 bd c0 f9 68 bc
       -0.0031952015 0.030322824 -0.07907377 -0.014219701
0000c0 7f f7 3b 3c 64 fe 72 3c af bf d1 bc ca aa 8c 3b
       0.011472582 0.014831159 -0.025604097 0.0042928206
0000d0 e4 24 19 bd dc 7e 11 3d bf 77 ba bc 49 48 e3 3b
       -0.037388697 0.035521373 -0.022762178 0.0069361073
0000e0 90 7d 8b 3c d7 59 3f 3d af b1 13 bd 3b 29 cf 3c
       0.017027646 0.046716537 -0.036058124 0.025288215
0000f0 c1 5d 9e bc 93 83 85 39 40 9b 05 3d 4d 10 aa 3c
       -0.019331815 0.00025465767 0.03261876 0.020759726
000100 4a a5 85 bd ca c6 fd 3c 28 0e 56 3d bc 1f 27 3d
       -0.06525667 0.03097858 0.052259594 0.04080175
000110 d5 7b e3 bc 89 d7 b7 3d 9a 30 0f bc 85 e5 01 bc
       -0.027769009 0.08976657 -0.008739615 -0.007928257
000120 de f0 6d bd e7 ae 5b bd 72 63 37 bd 52 92 d9 bc
       -0.058091037 -0.053633597 -0.044772573 -0.026559029
000130 c3 89 1c 3c d6 a7 5a 3d 49 02 ea b9 5c c4 e4 bc
       0.009554329 0.053382717 -0.0004463366 -0.027925663
000140 3e ce 26 bc bf b0 aa 3c dc 99 02 bd 01 de 8d bd
       -0.010181008 0.020836232 -0.031885013 -0.069271095
000150 19 1c 9b bd 3e 33 03 bd 32 be 45 bd f2 1c 0d ba
       -0.075737186 -0.03203129 -0.048277088 -0.00053830363
000160 52 3c 84 bd 3e 80 73 3b 9c 26 02 3d a0 e6 17 bd
       -0.06456818 0.0037155296 0.031775102 -0.037085176
000170 aa 5d 38 b9 cf 5a 00 3d 26 78 07 bd 3e 31 01 bd
       -0.000175825 0.0313366 -0.033073567 -0.0315411
000180 ad b7 3e 3d 3c 5a 09 3d 42 f9 f8 3c 97 50 ef 3c
       0.046561886 0.03353332 0.030392293 0.029213233
000190 d0 1a 6f bd d7 d9 0a 3d 9f fc 15 bd fd 0a 3c 3d
       -0.05837518 0.033899155 -0.03661787 0.045908917
0001a0 ed 39 ec bb 47 eb 86 bc 52 c6 ad 39 93 8a bc bb
       -0.0072090537 -0.01646961 0.00033144891 -0.005753824
0001b0 e2 05 1f bd 1c bf 49 bc e6 6b 04 bd 2c 22 8d bc
       -0.03882397 -0.01231363 -0.032329462 -0.017228208
0001c0 2f 98 1d 3d 91 31 28 3d 58 aa 7d bd 2a bf 5d bc
       0.03847521 0.041062895 -0.06193003 -0.013534347
0001d0 bd ff 92 bc 9c d8 14 3c b5 54 72 3b 6a 1a c7 bb
       -0.017944211 0.009084847 0.003697676 -0.006076147
0001e0 36 fd c7 bc 31 22 a9 3b b4 54 a7 3d 08 f6 a7 3d
       -0.024412733 0.0051615466 0.08170453 0.082012236
0001f0 f9 07 4e 3c f2 2d 98 3d 85 2f 1f 3c ba 4d 3d bd
       0.012575143 0.074306384 0.009715919 -0.046216704
000200 0b c9 a7 bd 89 fa 27 3d 6d a8 a5 3c 7e 53 c4 3c
       -0.08192643 0.041010413 0.020221913 0.023965593
000210 db 58 ea ba 89 15 f4 bc 34 c2 3a bc a9 94 0d bd
       -0.0017879264 -0.029795425 -0.011398841 -0.0345656
000220 61 8d e9 3c 7d d0 59 bc 3a 09 b1 bc 13 8b 5e bc
       0.028509798 -0.013294336 -0.021610845 -0.013582963
000230 bc cf 2f 3b 9d 73 8d bd 08 0e be bc 2d 98 8c bd
       0.00268267 -0.06906817 -0.02320005 -0.06864963
000240 fb 96 98 3d 7c b1 32 3d b5 a9 0c 3c d8 cd 91 3d
       0.07450672 0.043626294 0.008585383 0.0711934
000250 7f da c4 bc d7 0d ea 3c e6 3d 09 3d c5 f0 62 3d
       -0.024029968 0.028571052 0.033506297 0.055405397
000260 b2 47 e8 bc 11 52 d3 bc b5 99 98 3c 7b 8c 77 3c
       -0.0283545 -0.025795968 0.01862798 0.015109177
000270 13 a9 bc bc 59 df eb bc 15 6e 8c 3c b5 80 32 3c
       -0.02302984 -0.028793024 0.017142335 0.010894944
000280 ee 3c 9e bd 8e 71 00 bd a7 a2 34 bd e7 00 24 bb
       -0.07726465 -0.031358294 -0.04410043 -0.0025024952
000290 b8 fc 69 bb 33 30 01 bd 72 6b 99 bd d9 ae 9c 3c
       -0.003570361 -0.031540107 -0.07491197 0.019126343
0002a0 65 2c 05 3d a3 61 ba bc 3f 3d a8 bd 22 69 c1 3c
       0.03251304 -0.022751635 -0.08214807 0.023609702
0002b0 d0 e3 2d bc a2 bb 9b 3b e9 4e 2d 3a 13 42 a8 bc
       -0.010613397 0.004752592 0.0006611185 -0.02053932
0002c0 d8 ae 20 3c 2b dd 53 bd e6 14 82 3d 12 b5 35 3d
       0.009807311 -0.051724594 0.06351642 0.044362135
0002d0 55 ab fb bc 8a f0 89 3d 5e e8 b4 3c a2 cc 69 3c
       -0.030721346 0.06735332 0.022083458 0.01426998
0002e0 2b 33 46 3c 60 98 e1 bb ef 59 73 bd be cd 2f bc
       0.01209716 -0.0068846196 -0.05941194 -0.010730205
0002f0 03 63 c8 3b 88 82 0f bd fe 8d 34 3d 7e 38 95 3d
       0.0061153187 -0.035036594 0.044080727 0.07286166
000300 5a b3 91 3c f1 86 4c bb e0 ce a2 bc a5 86 3f bc
       0.017785717 -0.003120836 -0.019874036 -0.011689817
000310 fd e1 5e bc c6 1f 35 bb a6 83 12 3d 48 60 93 bd
       -0.0136036845 -0.0027637347 0.03577008 -0.071960986
000320 cd 56 62 bd d8 0c 99 bc 18 80 77 3d e0 eb 5e bd
       -0.05525856 -0.018682882 0.060424894 -0.054424167
000330 07 8a 07 bc 6c 47 07 bd 4a b4 e8 bc 8b 5b 7e 3c
       -0.008272654 -0.033027098 -0.028406281 0.015524755
000340 d4 fb 99 3b 8c 4c f0 3c 47 9f c8 3b b1 17 bd 3c
       0.0046992097 0.029333375 0.006122503 0.023082586
000350 cb 89 86 3c 8e 73 91 3c 79 0a 8e bc 5f 39 4a 3d
       0.016423127 0.017755296 -0.017338978 0.04937112
000360 a2 95 05 3d 2d 7e d3 3c 2f 13 8a 3d 53 c6 37 3d
       0.032613404 0.025817001 0.0674194 0.04486687
000370 c2 13 6c bb 2a f1 10 3d 93 7e b5 bb 2b ec 0e 3b
       -0.0036022519 0.035386242 -0.0055387705 0.0021808248
000380 84 b0 1d bd 36 df 1e 3c d0 b2 f7 3c d2 0e fd 3c
       -0.038498417 0.009696772 0.030236632 0.030890856
000390 f0 c5 97 3c 37 ab ca bc 8c 32 81 bd 90 d4 ea 3a
       0.018527001 -0.024739845 -0.06308469 0.0017916132
0003a0 34 71 fe ba cf c6 0b bd 5c f1 e2 3c fc 48 8a 3d
       -0.0019412399 -0.034125146 0.02770298 0.06752202
0003b0 ef 5e 66 bd ad 4f 83 3a ee 57 14 bc 32 05 a8 bb
       -0.05624288 0.0010018252 -0.009054167 -0.0051275725
0003c0 58 3d 81 3c 42 e6 3e bd 76 8d 5f bc 2a 8f 64 3d
       0.015776321 -0.04660631 -0.013644567 0.055800594
0003d0 15 d4 cd bb 3d 5c e5 bc c2 ae b5 3c be 1f 4b bc
       -0.0062813857 -0.027998084 0.022178058 -0.012397705
0003e0 3c 27 c1 3c 1b 6e 7d bd d2 72 81 bd 84 51 5f bc
       0.023578279 -0.061872583 -0.06320728 -0.013630275
0003f0 7f e8 2a bd 4c 8e e5 3c 26 52 07 3d 5f 03 26 bd
       -0.04172563 0.028021954 0.033037327 -0.04053056

model.layers.3.bias f4 [128]
000000 39 ab c8 3c d5 ff 0b 3d fb 2d 84 bb 3f 10 28 3d
       0.024495708 0.034179527 -0.0040338016 0.04103112
000010 23 8e 04 3d 96 31 22 3b 2a 1a a9 3b 74 c2 67 bb
       0.032362115 0.0024748794 0.0051605897 -0.0035363706
000020 1f a3 99 bc 6a a9 2a bc af cd 59 3b cd ab 49 bc
       -0.01875454 -0.010416368 0.003323417 -0.012309027
000030 69 ff 17 bb dd 46 f7 bc a6 68 22 3c 4a bd a5 bc
       -0.0023193008 -0.030185157 0.009912645 -0.020231862
000040 de 9d 2e 3b 6a 55 75 3c 2e e9 4b bd 8a 52 6e 3c
       0.002664439 0.014973978 -0.049782924 0.014546046
000050 bc 64 db 3b 61 ec 36 3d fb ae f0 3c 07 8b 0e bd
       0.006695358 0.044659022 0.029380312 -0.034800556
000060 e9 71 cc bc 05 f1 11 3d d9 db 53 bc 1f cb fb 3a
       -0.02495666 0.035630245 -0.012930834 0.0019210315
000070 34 63 70 bc 8c 10 32 bd 57 3f 14 bd d0 66 8d 3b
       -0.014672089 -0.04347281 -0.036193218 0.0043152347
000080 3d 88 e9 bb ae 67 9b bc 6b 29 02 3b cc 8b 97 3c
       -0.0071268366 -0.018970337 0.0019861113 0.018499278
000090 7f 19 7c 3c 9c 19 bd 3b 7d 11 08 bb 76 3c 90 bb
       0.015386938 0.005770875 -0.0020762377 -0.0044017388
0000a0 af 9b 88 bc e5 31 86 3c dc fb 73 3c bf 3d 64 3c
       -0.016675798 0.016381213 0.014891591 0.013930737
0000b0 3e 10 0a 3d 23 22 61 3c 3e ec 77 bc e3 08 e3 3c
       0.033706896 0.013741049 -0.015132008 0.027714198
0000c0 09 e8 12 3d 25 35 1a 3d dd 67 2f 3d 0e 1c 59 bb
       0.035865817 0.03764834 0.04282366 -0.0033128294
0000d0 60 cb 01 3d 7a 9a a8 bc ca 38 a8 bb e2 33 f4 3c
       0.031688094 -0.020581473 -0.005133723 0.029809896
0000e0 7b 8f c1 bc 7e 45 d1 bb 45 3c 77 ba 1d 89 58 bc
       -0.023627987 -0.006386458 -0.0009431283 -0.013216284
0000f0 9a de d4 3b fb 6f ea 3c f9 51 39 3d c0 48 0f bd
       0.0064962627 0.02861785 0.04524419 -0.03498149
000100 7b fa f0 3c 6c dc be ba 94 d0 7f 3c e1 50 84 3d
       0.029416313 -0.001456154 0.015613694 0.06460739
000110 50 d3 2b bc 74 40 17 3d 9d 1b 12 3c 50 34 ad bc
       -0.010487393 0.0369267 0.008917716 -0.021143109
000120 e2 cb 15 bd 60 f2 f4 3b e4 a9 1b bd d3 77 9f 3c
       -0.03657139 0.0074751824 -0.038003817 0.019466316
000130 53 d0 06 3d cc 79 b2 bb 17 44 c2 3c a6 99 32 3c
       0.032913517 -0.005446648 0.023714108 0.01090089
000140 a3 d1 e1 3c 65 8e 2c bc ae 09 b1 3c a2 5b 09 3d
       0.027565783 -0.010531996 0.021611061 0.033534653
000150 a1 a0 b4 3b 76 6b 0d bb 9e b3 65 bc 16 38 a1 3c
       0.0055123125 -0.0021578944 -0.014019875 0.019680064
000160 dc 3e ad bc 5f 10 0b bc df 9e 13 bc 6e 85 e6 bc
       -0.021148138 -0.00848779 -0.009010046 -0.028139796
000170 da 95 70 3c 51 81 08 bd 85 b5 82 3c 5f cd 8c 3a
       0.014684165 -0.03332645 0.015955696 0.0010742358
000180 e9 41 87 bb 1c c4 de bc fe 34 11 bd a8 f7 2d bd
       -0.00412773 -0.027193122 -0.035450928 -0.04247251
000190 e8 43 01 3d 46 34 81 bc 74 73 a0 bc cb 6a ba bc
       0.0315589 -0.015771996 -0.019586302 -0.022756001
0001a0 f0 3b d4 bb 26 71 9d 3c eb 7b 10 bd 9d bc f5 bb
       -0.0064768717 0.019218992 -0.035274427 -0.007499291
0001b0 66 95 d4 3c 7a 70 4d bd 86 69 ed bc 19 25 ca bc
       0.025950145 -0.050156094 -0.028980982 -0.024675893
0001c0 f6 8e 68 bb 57 15 6b bc 03 c2 36 bc 2e c4 5b 3c
       -0.0035485602 -0.0143483495 -0.011154654 0.013413472
0001d0 d2 22 02 bd ac fe dc 3c 5e 41 8e 3c 93 08 28 bc
       -0.03177149 0.026976906 0.017365154 -0.0102559505
0001e0 11 4e ba 3c e5 7f 1e bc a8 42 88 3c 8b 1b 41 3c
       0.022742303 -0.009674047 0.016633347 0.011786352
0001f0 46 46 b8 bc bf 16 71 3b bf 41 2e 3d 0c 04 ad 3c
       -0.022494446 0.003678724 0.04254317 0.021120094
