models/exported/model.pt (torch, 379818 bytes, 31 tensors)

weight f4 [64, 20]
00000000: bc83 303e 8bc6 2b3e d165 a8bd 02e1 b23d
00000010: dce7 3dbd 4fd8 e63c 4ff1 0dbe 0735 c33d
00000020: 238a 4a3e 69fd 37be 5108 283e 3de7 3abd
00000030: e6c8 293e 8524 643c 2431 9f3d f51c babd
00000040: 6dd1 303e 75fa 8a3c 5ec3 08be 5220 ae3e
00000050: 06ba e23d b870 dc3d c79a cdbd 9c3f 173e
00000060: 50b7 1e3d 6c8f f63c 405a 95bd 652b c1bd
00000070: bac2 703e 0b52 b4bd 04b5 443e 024b 0fbe
00000080: 8d91 c53e d09f 2b3e 87db a6bd 3e73 063e
00000090: 1926 803e 2564 9e3e 580e 803c 28f6 7fbe
000000a0: 49f0 f13d 3339 7fbd 8aa0 003d 6d5f 593e
000000b0: 2df0 3d3e 3b16 cbbd 90b9 883d e790 4c3e
000000c0: f98b 2d3e 2991 0cbe c146 91be c3de f63d
000000d0: b88c e4bd dc14 383e 67d9 0c3b fb7e 7c3d
000000e0: 6bf5 003e 2668 c5bb 9a0c e73d 93dd c93e
000000f0: b242 e03d 2338 8a3c 2b1c f93d cf15 ecbd
00000100: de9a 293e 2207 f73d a4bd 733e a21e 2fbe
00000110: 80fa 00bd e990 093d c6d0 813e 0516 0f3d
00000120: d47e a13e 5cf2 94bc 621a 2dbe ed61 67be
00000130: aef1 30bd c585 813e c700 083e 4b9f 843d
00000140: 0be9 0e3e 2d59 01bc 16a8 bf3d 236b c73d
00000150: 9ba2 c63e c111 b73d c9cc d33d 3d96 bf3b
00000160: 9c43 153e 1d36 553e 671e b93c 53d5 173e
00000170: 83f5 c63e 8581 943e 55bc 3ebe dae5 693d
00000180: 2fa1 eb3e 2ef8 803d aca5 d1bd af2c ccbe
00000190: 2e2f e43d b23c 4c3e 8f5c a43c 1b09 87bc
000001a0: 6e2a 773e f30b edbb ef9b 0fbe a2a7 f8bc
000001b0: 6c40 4a3d 3265 213b f367 8b3e e989 a83d
000001c0: 2562 9c3e ac02 82bd 9c3b c7bd 5427 893d
000001d0: f12b 8c3e 5173 56bd 9a48 3cbd a200 10bf
000001e0: fa5c 4e3e 68fa 2a3d 5c1c a6bc ec92 3dbd
000001f0: 5eaf 4b3d bb06 c2bb 20c9 a7bd ccd5 babd
00000200: e169 c53e 5b3b a13d 0040 3f3e 9f6b 4d3e
00000210: 4b15 713c a316 8d3e 8ef0 87bd 88bb 003c
00000220: abbe 973c 9cf6 cbbd 439d 713d 3a9f dcbe
00000230: 5e67 3f3d a86d 5bbe 3daf 583e 0540 16be
00000240: 303c 9ebd 042f 713c 15c4 233e 3976 533e
00000250: 80aa 263e b9df 51be f0ab ce3d da35 99bd
00000260: 2a53 80bd f767 46be 0443 7f3e 63df 0dbe
00000270: a82b a43d c8fe 4f3d 4cc2 f13d 2fe1 45be
00000280: a961 8d3e 5d06 993d b045 ab3c ebbf 46be
00000290: 788e 2a3e 6bac febb 02dd e1bd f028 2f3e
000002a0: 2f1f f93d 64fe c7bd 68ad f8bd 67ba 46bc
000002b0: 51fd 463e b813 01bd 979d 0abe 2dbf 92bd
000002c0: 0d31 c3bd 1d34 d63d b638 293e 50b4 97be
000002d0: 5337 9e3e dac9 3a3e 2489 28bc cc23 a43c
000002e0: 8673 be3e 2010 3c3e 6989 0f3d 0674 bf3d
000002f0: ef3f 4b3e 7cfc b73d bd61 b9bd 14c2 a03d
00000300: 3cc6 ca3e f43c 833e 9d05 91bd 9a60 ec3c
00000310: cd1d 843e 10f2 513d aef4 ba3b 3cba b0be
00000320: 8919 7bbe 825d f8bd ecd4 333e 74ee de3d
00000330: 0964 66bd 53e8 30be 1553 17be e54f 10be
00000340: ad5f f0bd 7d02 143d 4802 053e 4f7b b63d
00000350: 9e24 76be 5de3 2fbe b9a6 41bd 1436 823e
00000360: 124a 63bc e77c c3bd 6afa a43d c6ca 963e
00000370: 2ea9 2fbe 9b6c 243d a4e2 46be ac9c 1ebd
00000380: 5d04 80be 808f db3c ac75 9e3d 51bb ec3d
00000390: 57c6 3dbe be96 aebe fb0c 8cbe 91d1 4f3e
000003a0: 8f19 993d 4dd3 853d f26d c93c b644 b03d
000003b0: 9fd9 10bd 09b5 94be d733 91be 8da8 d4bd
000003c0: d802 663e b84b 023c bbda 9dbb 1b0b 81be
000003d0: 79e2 c63d 7588 21bd 1e7c d9bd 8287 c03c
000003e0: 10ee 953d bce0 803e b088 02bd e8b3 3dbe
000003f0: df22 cd3d 3c85 033c 7efe e0bc d780 98be
0.17237753 0.16774957 -0.08222545 0.08734323 -0.046363696 0.028179316 -0.13861583 0.095315985
0.19779257 -0.17967762 0.16409422 -0.045630682 0.16580543 0.013924723 0.07773045 -0.09087554
0.1726739 0.01696513 -0.13355777 0.34009033 0.110706374 0.10763687 -0.10039287 0.14770359
0.03874904 0.030097686 -0.072926044 -0.09432105 0.23511782 -0.08804711 0.19209677 -0.13993457
0.3858761 0.16760182 -0.0814734 0.13129899 0.25029066 0.3093578 0.01563184 -0.24996245
0.11813409 -0.06231041 0.031403102 0.21227808 0.18548651 -0.099163495 0.06676018 0.19977151
0.16947927 -0.13727249 -0.28374293 0.12054207 -0.111596525 0.17976707 0.0021491887 0.061644536
0.1259362 -0.0060243784 0.112817004 0.3942686 0.10950221 0.016872471 0.12163576 -0.11527597
0.16562983 0.12061907 0.23802811 -0.17101529 -0.031488895 0.033585463 0.25354594 0.03493311
0.31542075 -0.018181972 -0.16904595 -0.2259595 -0.043199234 0.2529737 0.13281547 0.06475695
0.13956086 -0.007894796 0.09358232 0.097372316 0.38795933 0.08938933 0.10341794 0.005846767
0.14576572 0.20821424 0.022597505 0.1482747 0.38859186 0.29005066 -0.1862653 0.05710397
0.4602141 0.062973365 -0.102366775 -0.3987784 0.11141811 0.19945028 0.020063667 -0.016483834
0.2413728 -0.0072340905 -0.14024328 -0.030353371 0.049377844 0.0024626967 0.27227744 0.08229429
0.30543628 -0.06348166 -0.097281665 0.06696954 0.27377275 -0.052356068 -0.045967676 -0.56250966
0.20152655 0.041742712 -0.020277195 -0.046282694 0.04972779 -0.0059212125 -0.081926584 -0.0912281
0.38557342 0.07872649 0.18676758 0.20060585 0.014714549 0.27556333 -0.06637679 0.007857211
0.018523535 -0.099591464 0.058987867 -0.4309023 0.046729438 -0.2142855 0.21160598 -0.14672859
-0.077263236 0.014720682 0.15992768 0.20650567 0.16275978 -0.204955 0.10091388 -0.074809745
-0.06265862 -0.19375597 0.24927908 -0.13854747 0.08016139 0.050780088 0.11804637 -0.19324182
0.2761357 0.07471917 0.020907253 -0.19409148 0.1665591 -0.0077720187 -0.11028482 0.1710546
0.12164151 -0.09765318 -0.121424496 -0.012129403 0.1943257 -0.031512946 -0.13536678 -0.0716537
-0.0953084 0.104591586 0.1652554 -0.29629755 0.30901584 0.18241063 -0.010286603 0.0200366
0.37197512 0.18365526 0.035043154 0.093483016 0.19848607 0.089837044 -0.09051845 0.078495175
0.39604366 0.2563244 -0.07081149 0.028854657 0.25803986 0.05125624 0.0057054376 -0.34517086
-0.2452146 -0.1212721 0.17561692 0.10885325 -0.056247745 -0.17276125 -0.14777787 -0.14092977
-0.11736999 0.036135186 0.12989151 0.08910238 -0.24037406 -0.17176576 -0.04727814 0.25431883
-0.01387264 -0.095453076 0.08055575 0.2945158 -0.1715438 0.040142637 -0.19422394 -0.038723633
-0.2500333 0.026801825 0.07737288 0.11559165 -0.18532692 -0.34099382 -0.27353653 0.20294787
0.07475578 0.06534443 0.024588559 0.086068556 -0.03536379 -0.2904437 -0.28359863 -0.10383711
0.22462022 0.007952623 -0.0048173345 -0.25203785 0.09711165 -0.039436776 -0.106193766 0.023502115
0.073207974 0.2517146 -0.031868637 -0.1852566 0.10016417 0.008027371 -0.027465101 -0.29785797

bias f4 [64]
00000000: 51d1 3f3c 4303 a8bb 4988 3c3c 46ee 4f39
00000010: f623 1f3c 0567 ab3c 0224 ce3c d7ee 6fbc
00000020: fd2e 3d3c e5f3 20bd ffc0 6bba 1706 433c
00000030: cbe5 1f3c 26b5 ebba 47f1 983c b6dc 7abb
00000040: 9131 ba37 565d 1b38 6b9f 103d a64a 993c
00000050: 66c4 8abc 2016 133d 556c e3bb d693 a03b
00000060: 32af 10bc cd2e 113c 6796 a23c 668c 203d
00000070: 9fb2 1abc 07e0 ca3b d7fe 833b 2aba d1bc
00000080: 581b 21bd 20db 8e3a 2383 2f3c 2045 37bb
00000090: 612b 0ebc 0dcf fabc 255b 22bb 91f4 a8bb
000000a0: b41f 053d efd3 06bd f84e 1dbd b73b c23b
000000b0: 2999 e53a 6feb a5bc a0ef a53c 77fe 973c
000000c0: 3ade a2bc f0e8 bd3b 1a88 45bc bdae 81bb
000000d0: 8ce4 06bc faa0 eabb 0f57 90bc 1fce 343b
000000e0: 1764 ec3b 1aaa d8bc 3f43 913b 1b6f d13b
000000f0: c152 abbc 8899 86bc 57cb 693c cf40 2dbc
0.01170762 -0.005127342 0.011507102 0.00019829822 0.009713164 0.020923147 0.025163654 -0.014644346
0.011546847 -0.039295096 -0.0008993297 0.011903307 0.009759377 -0.0017983064 0.018669738 -0.0038278527
2.2196009e-05 3.7041806e-05 0.035308283 0.018712353 -0.016939353 0.035909772 -0.0069404044 0.004900436
-0.008830832 0.008861256 0.019847108 0.039196394 -0.009442001 0.006191257 0.004028182 -0.025601465
-0.039332718 0.0010899045 0.010712418 -0.0027964786 -0.0086773345 -0.030616308 -0.0024773565 -0.0051561077
0.032500938 -0.03291696 -0.03840539 0.0059275287 0.0017516959 -0.020253865 0.020255864 0.018553955
-0.019881357 0.0057955906 -0.012056375 -0.003957598 -0.008233201 -0.007160303 -0.017619638 0.0027588678
0.00721408 -0.026448298 0.004433065 0.0063914186 -0.020913484 -0.016430631 0.014269671 -0.010574534

weight f4 [128, 64]
00000000: 698e 27bd 0fc9 a33c 7498 66bd b7ae f93d
00000010: 245a 6d3d cf5a 093d b426 f6bb 13a7 6f3d
00000020: 651f fe3d 8894 fa3d 2753 473d 77b1 43bd
00000030: 615f 6e3d 7f2e 403e 34f6 f83d 5b01 a3bd
00000040: 7e26 95bd 9e1d 8cbd ef0e 90bd c2be 0a3e
00000050: 95e1 0c3e 93fd 22be be88 07be a655 1fbe
00000060: 465a 053e 6971 113d fbff 36bd e1ff 4d3d
00000070: 3333 4a3d b878 35be 3dad a93c 76f2 f03d
00000080: 3f67 cb3d bda3 66bd 3f33 983d 1163 923d
00000090: fc97 4b3c dd4f 43be 42e7 d33d 564c 07be
000000a0: 93a4 9f3d 4b99 863d 3b70 103d c659 21bc
000000b0: 84c4 88bd 4e55 0abe 9f76 d03c e7f4 733d
000000c0: 0ce1 713d e72a 71bd 36d7 8e3d 3101 0d3e
000000d0: 525b 503d 6ec3 a3bc ee41 d7bd 4bb2 0bbe
000000e0: 728d c0bd 419c 72be 7339 cebd 233a ea3d
000000f0: ff26 0dbe 2442 ccbd cd85 353d bd73 bcbd
00000100: 00fc 21be 272a 4dbd b01c e9bb 8b98 b9bc
00000110: 7fde 07bd 3fe5 a3bc f9a4 6ebd 3cb0 03bd
00000120: c10f 45bd e56d 8bbc e568 063c 1c8f 893c
00000130: 4719 b53b eacf d63e 3398 83bd 2455 34be
00000140: cbb2 0bbd d25f 5abd 1db4 16bd 7a21 8fbd
00000150: 3fff cdbb 3fc4 85bc 43ff 213e 57f2 5d3e
00000160: 2036 c3bc 30f8 cb3e 96b4 1abe 51f8 2a3c
00000170: 297c 83bb 7155 0f3e 961d 26bd c197 0cbd
00000180: 38a9 3fbd bb3c 79bc 45cc eebc 5df6 cabd
00000190: b7ad fdbd 35ff 62be ab09 1d3d 13fe e73d
000001a0: 3c31 fdbd d7ff 4fbd aef5 85bd c146 d8bd
000001b0: ae46 fc3d 39dc 9a3d 87eb b4bb c008 49bd
000001c0: 11da c33c ae2b f53c 2b41 e43d e5b9 4abd
000001d0: d4de 85bd bf7b 3b3d ed35 6b3d 95ec 5bbd
000001e0: 0226 a7bc d371 9d3b b3ed ef3d 61f0 10bd
000001f0: 0e88 e33d 330c 533e 3286 83bd f0cc 583d
00000200: 07a5 cabc fdc3 643e e37f 12be 8aaf c73c
00000210: 3e1e 62bd 3e44 223d 0124 38bc ce6d e2bd
00000220: 90de 47bd 20e9 0c3e 8457 2fbe c098 d8bd
00000230: cffd cfbd c928 29bd 7b9f bf3d d5df dc3d
00000240: 7d83 d53c 1bfe 7a3e e56a f8bd 66dc dabd
00000250: 059d efbd c2bf eabd f5e9 87bd 86cd 0dbe
00000260: 640c e8bd 0f08 b4bd 542e 633d 04a8 673e
00000270: 4b54 1c3e 25f9 3ebd a84e 2a3d 9eaf 18be
00000280: d9ef 60bc be3f 2abe f30b d33d 00c5 f33b
00000290: 35ad bd3c 395c 92bc c1de 01be 5db7 603e
000002a0: a04f bc3d 06fd 0e3e 332c ee3c d0b7 7bbc
000002b0: f70d b13c 3162 343d a54f 3f3d 83a3 49bd
000002c0: 2f50 2d3d 3d50 90bc f609 923d cef7 8d3e
000002d0: 2456 573d 174d 2cbe 4ddf d4bd d842 0d3d
000002e0: bff2 8c3d f779 cb3b ebf7 c23d 795d 193e
000002f0: 8820 b3bd 93de c3bd 94dd babd b10b 96bd
00000300: c94b 49bd 8852 983c 6034 0abe 8348 e4bc
00000310: 9b93 1e3d d5c2 fd3d f85f a63d 9c04 e73d
00000320: 18bf 823d accd 953d e21f 42bc 03ba 46bd
00000330: 157b 55bd 3168 6ebd 0f9a c93c 6eb3 8abd
00000340: 1b00 b33d a301 8dbd f41f f03d db64 bb3d
00000350: e281 373c 58ce 35be d5e8 2abe 2a0d 5abe
00000360: 5f0e 6c3d 2cc1 e13d 3fd7 ff3c 3216 12be
00000370: 3789 ba3c 4695 e0bd 26d9 553b 9771 7c3d
00000380: f277 abbd 5da3 8bbd eed0 36bd b9dc 41bc
00000390: 257b 12be ce6c 31be 54fd 3a3d 3da6 b2bd
000003a0: af1e fcbd 0d7b b63d 8a03 7e3d e438 eabd
000003b0: 3191 19be de76 8ebd 7495 51bd 1649 b23d
000003c0: 7b9b 92bd dead 873b a870 9abd ab8b 653d
000003d0: 4e9c 113c 5636 aa3c 863f 0fbe 643f 623c
000003e0: 9709 32bd 8152 50bc a59a 08bd 7f60 05bd
000003f0: 65f8 f8bd e5ec 04be 1277 26bd c147 253c
-0.040907297 0.019993333 -0.056297734 0.12191527 0.057947293 0.033533867 -0.007511938 0.058508944
0.12408332 0.12235361 0.048663285 -0.047776666 0.05819643 0.18767737 0.121563345 -0.07959243
-0.072827324 -0.068415865 -0.07034098 0.13549331 0.13757928 -0.15917043 -0.13235757 -0.15560016
0.13022718 0.035508547 -0.044677716 0.050292853 0.049365234 -0.17721832 0.02071249 0.11764996
0.09931802 -0.056308497 0.074316494 0.07147802 0.012426373 -0.19073434 0.10346843 -0.13212714
0.07795062 0.06572207 0.03526328 -0.009848064 -0.066781074 -0.13509104 0.025447188 0.05955973
0.059052512 -0.058878805 0.06974642 0.13769986 0.05086834 -0.01999065 -0.10510622 -0.13642232
-0.094019786 -0.23692419 -0.10069551 0.1143687 -0.13784407 -0.09973553 0.044317055 -0.09201763
-0.15818787 -0.050089028 -0.0071140155 -0.022655746 -0.033171173 -0.020006774 -0.0582628 -0.032150492
-0.048110727 -0.017020175 0.00820372 0.016791873 0.005526695 0.419555 -0.06425514 -0.17610604
-0.034106057 -0.053314038 -0.036792863 -0.06988807 -0.006286531 -0.016328929 0.15820031 0.21674477
-0.02382952 0.3983779 -0.1510795 0.01043518 -0.004012604 0.13997437 -0.04055556 -0.03432441
-0.04679224 -0.015212233 -0.029150138 -0.09910271 -0.12386649 -0.22167666 0.0383393 0.11327758
-0.12362906 -0.050781097 -0.06541 -0.1056037 0.123181686 0.075615354 -0.005521241 -0.04908061
0.023907693 0.029928055 0.11145242 -0.04949369 -0.06536642 0.04577231 0.057424475 -0.05369242
-0.020403866 0.0048048287 0.117152594 -0.035385493 0.11109935 0.20610122 -0.0642208 0.05292982
-0.024736894 0.22340389 -0.14306597 0.024375696 -0.055204622 0.039615862 -0.011239053 -0.110561
-0.048796237 0.13760805 -0.17123228 -0.1057601 -0.10155832 -0.04129866 0.0935659 0.1078488
0.026063675 0.24510996 -0.121297635 -0.10686569 -0.11699871 -0.11462356 -0.06636421 -0.13847932
-0.11330488 -0.087905996 0.055464104 0.22622687 0.1526653 -0.04662432 0.04157892 -0.14910743
-0.013729059 -0.16625878 0.103050135 0.0074392557 0.02315388 -0.01786624 -0.1268263 0.21944948
0.09194875 0.13963708 0.02907381 -0.0153636485 0.021613104 0.044038955 0.046706814 -0.049228203
0.042312797 -0.017616386 0.07130806 0.27728122 0.052572384 -0.16826282 -0.10394154 0.034487575
0.06882238 0.0062096077 0.09519943 0.14977063 -0.08746439 -0.09563937 -0.09124294 -0.07326449
-0.04914454 0.018594041 -0.13496542 -0.027866608 0.038714986 0.12390677 0.08123773 0.11280176
0.063841045 0.073146194 -0.011848422 -0.04851724 -0.052119333 -0.058204833 0.024609594 -0.06772505
0.087402545 -0.06885078 0.117248446 0.09150096 0.0112004 -0.17754495 -0.16690381 -0.21294084
0.057630893 0.11023173 0.031230567 -0.1426628 0.022770507 -0.10965972 0.0032630651 0.061631765
-0.08372487 -0.068182684 -0.044632845 -0.01183241 -0.14304788 -0.17326662 0.04565175 -0.08723114
-0.1231054 0.08910189 0.062015094 -0.11436632 -0.14996792 -0.06956266 -0.05116792 0.08705346
-0.07158562 0.0041405996 -0.07541019 0.0560414 0.008887364 0.020777863 -0.13989076 0.013809059
-0.043466177 -0.012714983 -0.033350606 -0.03256273 -0.121567525 -0.12980993 -0.040640898 0.010087908

bias f4 [128]
00000000: c12e e83c 3b6a 8bba 82c1 cf3c 9b46 353c
00000010: 3c6d a93a f613 a6bc 5200 3d3d dfa8 0cbd
00000020: 7c40 72bd 993b b1bb fbfa 073c 21a5 ebbb
00000030: 0914 07bd 02bb f23a a54c 6a3c 1a63 6d3d
00000040: 1d5c cfbb 8d2b 9abc f0d9 f43c 8351 05be
00000050: 04a5 17bb 5ff7 24be 64d9 e9bc 37a0 3dbd
00000060: 50be 93bd 09ad 2b3b b935 2e3d 43a3 1abd
00000070: 725a f43c 6015 30bb dcd4 c33c 736f abbb
00000080: f72e 0c3c edad dabc 7e56 1cbc b25e 613b
00000090: 6514 71bd f5e8 21bd 357e 213c c3bb 993c
000000a0: c40f 9bbc ea0e c63c 3ad0 83bd 0180 4b3c
000000b0: 25d7 40bd f854 283c 23ee 9c3d ca7d 043c
000000c0: 16ac 03bd 3763 293d 7e22 5fbc 157b 5cbd
000000d0: 7d75 8cbd 9375 a33c 41ff de39 186f 42bc
000000e0: 43c3 1ebb 0b8b 9c3c 3bf4 743d 4cd8 353c
000000f0: dedb 1b3d 80ba 30bd edef e23c 1be3 d6bc
00000100: efe2 f73c b940 0d3c a119 523b f2a1 29bd
00000110: 1681 72bd 3c06 2abc c721 5b3d 82a1 ba3c
00000120: 2d97 13be 20a6 b23c f53f b9bc 4437 793d
00000130: 39a6 5f3c 2ecf ae3c b1b8 f03c c055 0f3d
00000140: c065 9e3b 43e1 183c e149 f6bb 9af1 303c
00000150: 6079 7e3c b57a 673c a4a4 bfbc 7772 1f3b
00000160: 953c 91bb 3a24 d03c fd89 8b3c 67e6 0b3d
00000170: d2c2 32bc 97b9 8cbd 6b60 62bc 154b 9a3d
00000180: 8bd1 52ba e74b 5fbc 8359 363d 2a6c ba3b
00000190: cb3a f5b9 f664 36bc 17ae f73b 63e0 773d
000001a0: bb5e dd3b 2a9a febc 4905 023d 4b4e 6f3c
000001b0: 996b 0f3d 3d56 bc3d 2b3a 7d3b 3c9f 1f3c
000001c0: c33a 283c 6861 8bbd 1be6 dbbc 72de a33d
000001d0: 069a 233c 33f5 3a3d 1bf8 98bc 05be e13b
000001e0: d614 853d 4ae2 a93c 2908 ec3d f7fe 493c
000001f0: 1172 a5bc 0d4e 47bc 2dc1 bc3c 651b 0ebd
0.028342606 -0.0010636518 0.025360826 0.011064197 0.0012926231 -0.02027319 0.046142884 -0.034340736
-0.05914353 -0.005408716 0.0082995845 -0.0071913158 -0.03297809 0.0018518867 0.0143005 0.05795584
-0.0063281194 -0.018819595 0.029889077 -0.13019376 -0.0023139128 -0.1610999 -0.028546043 -0.04629537
-0.072140336 0.0026195666 0.042531703 -0.037753355 0.029828284 -0.002686821 0.02390521 -0.0052317916
0.008556119 -0.026694262 -0.009542106 0.0034388718 -0.05885734 -0.039528806 0.00985675 0.01876629
-0.018928416 0.024177033 -0.064362004 0.012420655 -0.047080178 0.010274164 0.076626085 0.008086631
-0.032146536 0.041354384 -0.013619063 -0.053828318 -0.068583466 0.019953525 0.0004253332 -0.011867307
-0.0024225272 0.01910927 0.05980323 0.0110989325 0.03805148 -0.04314661 0.027702296 -0.02623134
0.030259578 0.008621388 0.0032058733 -0.04141421 -0.059205137 -0.010377463 0.05349901 0.022782091
-0.14413138 0.02180773 -0.022613505 0.06084372 0.01365047 0.021339025 0.029384943 0.034993887
0.004833907 0.00933105 -0.0075161313 0.01079979 0.015531868 0.014128377 -0.023393936 0.00243297
-0.004432271 0.0254079 0.017033571 0.034155276 -0.010910707 -0.06871336 -0.013816933 0.07533852
-0.00080420886 -0.013628936 0.04451896 0.0056891637 -0.00046773846 -0.011132469 0.007558595 0.060516726
0.0067556775 -0.03107937 0.03174332 0.014606069 0.035014722 0.09196136 0.0038639407 0.009742554
0.010267916 -0.06805688 -0.026843121 0.080014125 0.0099854525 0.045643996 -0.018672993 0.006889107
0.06498115 0.020737786 0.11524994 0.012328855 -0.020195993 -0.012164605 0.023041332 -0.034694094

weight f4 [256, 128]
00000000: 0894 c4bd 2c0e c73d 29ac b83d 517d b4bd
00000010: dd9b 01be 9a39 163b ba7b 80bd 42b8 cbbd
00000020: aa2e ebbc 80b7 30bd f75f cebc 0405 21bd
00000030: 3bd7 cfbd a040 983d 4b08 dabd 7142 b03d
00000040: 290c 713a 4d03 203c d239 07bd dcca ea3c
00000050: 8023 00be 26e8 1f3c aa29 24be 8598 e2bd
00000060: 0ac1 f83d e9e7 52bd f3ab 463d 04e9 013d
00000070: 3995 49bc 72fa ab3d e8f9 28be 2f51 203e
00000080: 2673 7ebd 0817 fbbd 0b53 f33c e20c bcbd
00000090: 1fbd 18bd 2b74 fa3d 467c 133d c27d 7ebc
000000a0: 44d1 9f3d 1d80 75bd 9d43 e6bb dc36 99bd
000000b0: 6330 4e3d ee5d b43c 297d c8bd 6a7c 10bd
000000c0: 1d26 f9bd f0be 053c a9b8 8c3c ceaa bf3d
000000d0: 45d6 0b3e 81b9 9d3d c704 cbbd 1c66 5ebd
000000e0: 69bf 0dbd 4e77 c4bc 32fc 1e3e 024c a3bc
000000f0: ea1f 1cbc 839c 0fbe a639 e83c a954 b43d
00000100: 7557 acbc 4164 283d 9ecf 983d 8443 4cbc
00000110: fa1a 583b 408e 32bc 01c4 41bd 23e0 edbd
00000120: 0c7e 8c3d c1d2 eabb b654 8dbd 2e25 a8bd
00000130: 76c4 45bd bc11 f03d d862 8b3b 9b08 fbbd
00000140: f99f 813d d1ac 233e 9577 e53d 7238 993d
00000150: 8f12 ee3d e113 d73d d476 37bd 76e5 e43d
00000160: 31c9 6f3d 9fac 48bd 98eb c1bc 2d9e 88bd
00000170: bbaa da3d 9ec8 90bd 68e3 1e3d 7691 0fbd
00000180: 9c52 e93c ead2 a7bd 0626 f5bd 0db5 2fbc
00000190: 0eed 3cbe f5fa 213d cb42 0e3c f140 403c
000001a0: 95ef 1abe 9af0 4bbc 3276 233d dd47 953d
000001b0: 5be5 3c3c 552c c8bc ceb4 f7bd d1d8 4c3b
000001c0: 45f4 6a3b 9435 953d 67ed f23d e1d1 593d
000001d0: 46a8 1d3e 3368 14bd 5b7c 49bd b1ab 8ebd
000001e0: dc4d fcbd 5677 74bd a721 003e 334a ac3c
000001f0: 67bc e63c d413 e53d 05c4 5cbd 0f07 f93d
00000200: 4922 6fbc 17bd f53d bb1d f83b 8dc3 43bc
00000210: 334c 4e3e 60f7 a23b 7af2 cdbc b19e dfbc
00000220: 06d5 2f3d 8326 833d a31c a33d 8dd6 063e
00000230: 9bfd 983d 934f 0f3e 50c5 a73d 0e71 673d
00000240: b631 a9bc 7b35 003c 6d82 f73b 4fa7 32bd
00000250: 0aea acbc 7a02 473e f013 6e3d 1682 d13d
00000260: 4254 e53d 9d93 513d dbc1 683e 26eb 4e3d
00000270: 32a1 46bc 9c31 a3bd 58eb aa3d ba0d 063e
00000280: 8f97 f93d 12a9 5c3d a825 08be fa03 23bd
00000290: 7720 e53d d470 7abd a1a2 2f3d 65b2 6b3d
000002a0: 4dca b13d 8463 a03d 1bde 01bd 5319 093e
000002b0: 178e 4a3d 48ee 9abc f99b b63d 31b1 dc3d
000002c0: 2941 d43d 4d1e 153d f633 0d3e 1ad4 c2bc
000002d0: f61f 1c3e f65c 8a3b e3b7 ab3c 51a6 303e
000002e0: 2eaa 283d 8f4d d4bc 4310 003e cd42 b33d
000002f0: 2b2c 73bd e5ab 763c 25f4 02bd 9437 5cbc
00000300: 53ea 4f3d 6df8 9dbc 7f2a 9ebd 7816 ce3d
00000310: b50e b73b d416 14bd 5ec6 87bb f03f 13be
00000320: b87b a23d 4c94 9e3d c82f 323e fbf4 273c
00000330: dce9 87bc acb1 803d eab0 89bc 9587 d73d
00000340: ad92 de3d b74a 623d ccbb 763d c0d8 e53d
00000350: 7a0a 4d3d 31e7 0a3c 36c3 933d d4ce 2c3e
00000360: 6e60 813d 0e05 983d dfaf bcbd 8e75 0b3e
00000370: 29e3 27bd f0b6 6fbd 403f 043e 8aac fabc
00000380: fc8b 103d ebfb 833d bc68 2d3e dfab bf3d
00000390: f5a1 cf3d b68a 673d ed07 683d a0a0 003d
000003a0: 3eb8 c7bc cf65 813d 490e b03d 6222 4f3e
000003b0: da4a 81bd 2b11 31bc 0ae2 61bd 37e3 75bd
000003c0: 43b9 283e f164 45bd 593f 6e3d a705 f3bc
000003d0: 5154 d7bc e8f7 3ebd 2bda da3d a464 303e
000003e0: d49d 34bd e30d 1e3d 60da a23d 911c 303e
000003f0: 339d 2a3d ad03 873b 0078 b53d d207 98bd
-0.09598547 0.097195 0.09017212 -0.08812965 -0.12657113 0.0022922517 -0.06273599 -0.09947254
-0.028708775 -0.04314375 -0.025192244 -0.039311424 -0.10148474 0.07434201 -0.10646113 0.08606423
0.00091952324 0.009766412 -0.033014126 0.028661184 -0.12513542 0.009759938 -0.16031519 -0.11064247
0.12146194 -0.051490698 0.048503827 0.03171636 -0.012303644 0.08397378 -0.16501582 0.15655969
-0.062121533 -0.12260252 0.029702684 -0.09182145 -0.037289735 0.122291885 0.03600719 -0.015532913
0.07803586 -0.05993663 -0.007027103 -0.07481167 0.050339114 0.022017445 -0.097894974 -0.0352749
-0.12165473 0.008163199 0.017177897 0.0935875 0.13655956 0.07701398 -0.099130206 -0.054296598
-0.03460637 -0.02398267 0.15525892 -0.019933704 -0.009529093 -0.14024548 0.028347801 0.0880521
-0.021037797 0.041111235 0.07461475 -0.012467269 0.0032975064 -0.010898173 -0.047306065 -0.11615016
0.06859979 -0.007166237 -0.06900923 -0.082102165 -0.048283063 0.117221326 0.0042537265 -0.12257501
0.063293405 0.15983893 0.11204449 0.07481469 0.116246335 0.105018385 -0.044791058 0.11176579
0.05854148 -0.04899275 -0.02367191 -0.06670795 0.106770955 -0.07069515 0.03879109 -0.03505083
0.028481774 -0.081945255 -0.11970143 -0.010724318 -0.18449804 0.039545972 0.008682917 0.011734233
-0.15130456 -0.012447501 0.03990764 0.072890975 0.011529292 -0.024435202 -0.12095033 0.0031257162
0.0035851162 0.0728561 0.11861687 0.05317867 0.15396222 -0.036232185 -0.04919086 -0.06966341
-0.12319538 -0.05968412 0.12512837 0.021031475 0.02816601 0.111854225 -0.053897876 0.121595494
-0.014595577 0.11998957 0.0075719035 -0.011948478 0.20146255 0.004973337 -0.025140036 -0.02729735
0.042927764 0.0640383 0.079644464 0.13167782 0.074702464 0.13995199 0.08191931 0.0565043
-0.020653587 0.007825251 0.0075533898 -0.04361659 -0.021107692 0.19434538 0.058124483 0.1022989
0.111977115 0.051166166 0.227302 0.050517224 -0.012123393 -0.079684466 0.083456695 0.13091174
0.12187111 0.053872176 -0.13295615 -0.039798714 0.11187833 -0.061142758 0.042879704 0.057543177
0.08681164 0.07831481 -0.031705957 0.13388567 0.049451914 -0.01891245 0.08916468 0.10775984
0.10363991 0.03640585 0.13789353 -0.023782779 0.15246567 0.0042225076 0.020961707 0.17250945
0.04117792 -0.02591589 0.12506203 0.087529756 -0.059368294 0.015055631 -0.031971116 -0.013440985
0.05076058 -0.019283498 -0.07722949 0.10062879 0.00558647 -0.036154583 -0.0041435203 -0.14379859
0.07933754 0.07743129 0.1740104 0.010251279 -0.016591005 0.06283888 -0.016807992 0.10523907
0.1086782 0.055247035 0.06023769 0.112229824 0.05005882 0.008477972 0.07214968 0.16875774
0.06317221 0.07422839 -0.09213232 0.13619062 -0.04098812 -0.058524072 0.12914753 -0.030599851
0.03528975 0.06444534 0.16934484 0.09358954 0.10138313 0.05652877 0.056648184 0.031403184
-0.024379846 0.063182466 0.08596475 0.2022796 -0.06313105 -0.010807316 -0.05514721 -0.060031142
0.16476922 -0.04819197 0.05816588 -0.029665781 -0.026285322 -0.04662314 0.106861435 0.17225891
-0.04409583 0.038587462 0.07951808 0.17198397 0.041653823 0.0041203112 0.08860779 -0.074233666

bias f4 [256]
00000000: f791 c0bb efce 7e3b d9ae 983c 9846 113c
00000010: a6a4 9cbc b093 3b3c e268 2b3d d509 45bc
00000020: f333 80bc c9cd 083b 4527 ffbb 32e4 3b38
00000030: b453 1e3b 8721 29ba a724 9f3b 1e9e 4e3c
00000040: 7848 bebb 6b48 403c 0488 30bc 029d e5bb
00000050: fb2a b33c 2ec4 d73b 2ca1 30bc ffcc ba3c
00000060: 2edc aabc e6e8 033c 5e33 27bc 952b 973b
00000070: 66ae 1dbd 9006 8fbc ef04 c4bc 7b9d 56bc
00000080: 538f 873b 1f7c ae3c d86f 4ebb 5582 59bc
00000090: 6256 a63a 7123 e33b 4eb4 a23a 9d7f b1bc
000000a0: 0419 283b 7c66 e4bc 9085 3cbc 58b8 7bbc
000000b0: 0db3 88bb dd94 473b 17f8 a23a 2ccb d7bc
000000c0: b318 343c 2d15 0fbc 6717 84ba 8ce4 84bc
000000d0: e70a a3bc 485d 353b e51e 46bb 030b 9dbc
000000e0: 1ae8 1e3c 59ce af3b 7dca 48bc b05f 25bc
000000f0: 0c1b 763a 4a2c a83b 15bb 23bb f5bf 8d3c
00000100: b56b c13b 5093 a93b b7eb 1f3c e36f 18bd
00000110: 9438 263d da90 2b3d cd86 d2ba 76a9 fa3b
00000120: 01b5 c63c d1f2 c0bb 76e5 f43b 1234 f83b
00000130: 5524 df3b cd4c eb3b db0b 6ebc 0858 34bc
00000140: da4f 9a3b 8a17 efbb 88cd c7bb 0205 be3c
00000150: eebb f2bb 64cc 2cbb 2b23 06bd 0e97 953a
00000160: 213f 2c3c 51bb 563c a320 25bc be80 c5bc
00000170: 6d9c 01bd af90 eb3b 9702 073d f068 a83c
00000180: e61c 0abc 0b54 da3c b2d9 89bc eb29 f3ba
00000190: 293d 83bb cc87 54bb e8dd 88bc b83f f73c
000001a0: 0aeb 80b9 d034 efbb 2ed5 1b3b dd68 9c3c
000001b0: f235 b4bb 82a4 e8bc 3616 52bc ff6e 85bc
000001c0: 4bac 76bd f1f4 39bc 3e8a 113b 9d65 0f3b
000001d0: 6110 f4bc b85b cb3c 635d 2c3c 53ab 8ebb
000001e0: dbd6 103c 109f 1bbd 7684 7b3c 9a8c 80bc
000001f0: 352c f0bc 6e10 11ba 28d7 903b 442c 873c
00000200: 08e6 073d f501 843c 0a7c 6c3c 548b 1e3c
00000210: a927 93bc 7f70 7cbc eb97 c8bb 3587 b73b
00000220: e78f 903b 645b 973c 4ef4 16bc ccdd a93c
00000230: 1695 7fbc 4eda 293c ca02 05bd af51 323b
00000240: eac1 a2bb 2a5d 453d b591 713c ea0f 9ebb
00000250: 48b0 893c 72ff 7c3c da05 53bc 1d1a f43c
00000260: d15e c0bb ac2c 31bb da2f ae39 de9c ed3b
00000270: d442 18bd f9aa df3c 86e5 2dbc 3258 aebc
00000280: 3d05 77bc c647 e1bc 688b ecbc 5929 a13c
00000290: 593d b03b 05f5 973c 7739 b03c 2750 94ba
000002a0: e9ba c43c bef9 8abd 6607 d4bb cf9d 6b3b
000002b0: 1f8b 6cbc 5629 cbba 9f09 dd3b 4561 1bbd
000002c0: 5aef 0abb 81ba 0bbd f00a 09bd 4f94 5fbc
000002d0: a46f d73c a268 463d a71f 543c f78f 3c3c
000002e0: 441c 6bbc daf6 dabc ca56 cdbc 0f68 69bb
000002f0: e2c9 06bc 10a8 6ebc b39e 89bb b3c6 63bc
00000300: 997a 843b 4760 573c 6166 0f3b b29c f83b
00000310: 78d1 9dba d09f 1e3b efaf bbbc 4088 d3ba
00000320: 2315 9d3c a1e5 5fbc 7952 0cbd b549 bf3c
00000330: 8679 9f3c b261 e23a f0ef bf3c d626 28bd
00000340: d274 783d 9121 06bd 2499 173c 92ec edba
00000350: 4067 543c 0397 44ba fa2b 14bc d01d 0f3c
00000360: d5dc 68bc fdb4 203c 783b 3abd 75db 16bb
00000370: 3b3b 93bc 4a4a 2fbb 6b2e a73c 0fd2 093d
00000380: 7964 a13a 3ebb 63ba d20b a23c c67b 3d3c
00000390: 3e81 c93c 09ac 9e3b b2b3 ab3c b949 65bc
000003a0: 895a e13b 734c b53c 203f 5dbc ec29 efbc
000003b0: ebd1 4eba 9c3e 753c cafd 6abc 1cf6 0c3c
000003c0: d015 2fbc 4360 3c3a 9b0f a23b 80e5 213d
000003d0: 0960 ce3b 5c3a f03b ecfc 6d3c decb ec3c
000003e0: b6df f73a ba98 4a3c 78f5 a53c 5ac3 6fbc
000003f0: 87c2 f93c 25b2 2bbc 5a7e e63c 9435 b1bc
-0.0058767754 0.0038880666 0.018638061 0.0088669285 -0.01912148 0.011448786 0.04184807 -0.01202627
-0.015649771 0.002087461 -0.0077866637 4.4796798e-05 0.0024158778 -0.00064518343 0.004856664 0.01261094
-0.005806979 0.011736016 -0.010774616 -0.007007242 0.02187108 0.0065846657 -0.010780614 0.022802828
-0.020856943 0.008051133 -0.010205118 0.0046133497 -0.038496397 -0.017459184 -0.023928134 -0.01309907
0.0041369586 0.02129942 -0.003149977 -0.0132757025 0.0012690539 0.006931715 0.0012413354 -0.021667296
0.0025649676 -0.0278809 -0.011506453 -0.015363775 -0.004171735 0.003045372 0.0012433556 -0.026341997
0.010992217 -0.008733076 -0.0010077775 -0.01622226 -0.01990266 0.0027674008 -0.0030230817 -0.01917029
0.009698892 0.0053651747 -0.012255308 -0.010093614 0.00093881856 0.005132233 -0.0024983336 0.017303446
0.0059027323 0.0051750317 0.009760789 -0.03721608 0.0405813 0.041886188 -0.0016061902 0.007649596
0.024256231 -0.005888321 0.007473643 0.0075745666 0.006809751 0.007180786 -0.014529194 -0.011007316
0.004709226 -0.0072965072 -0.0060974993 0.023195747 -0.007407657 -0.0026366943 -0.032748383 0.0011412816
0.010513098 0.013106183 -0.010078582 -0.02410924 -0.03164332 0.0071888785 0.032961454 0.02055785
-0.0084297415 0.026651403 -0.016827438 -0.0018551921 -0.0040050936 -0.0032429574 -0.016707376 0.03018175
-0.0002458918 -0.007299997 0.0023778188 0.019092971 -0.005499595 -0.028398756 -0.012822678 -0.016288279
-0.060222905 -0.0113499025 0.0022207643 0.0021880635 -0.029792966 0.024824008 0.010520312 -0.0043539195
0.008840288 -0.03799349 0.015351405 -0.015692044 -0.029317955 -0.0005533759 0.00442018 0.0165006
0.03317836 0.016114214 0.01443387 0.009676773 -0.017963247 -0.0154076805 -0.0061216257 0.0056008347
0.0044116857 0.018476196 -0.00921352 0.020735644 -0.01559951 0.010366989 -0.032473363 0.0027209332
-0.004966964 0.04818455 0.014744212 -0.0048236744 0.01680769 0.015441762 -0.012879813 0.029797608
-0.005870678 -0.0027034683 0.00033223518 0.007251366 -0.037173107 0.027303206 -0.010613805 -0.02128229
-0.0150769325 -0.027500045 -0.028875068 0.019673036 0.005378407 0.018549452 0.021511776 -0.0011315391
0.024014907 -0.06785916 -0.0064706085 0.0035952216 -0.014437466 -0.001549999 0.0067455317 -0.03793456
-0.0021199794 -0.03411341 -0.033457696 -0.013646199 0.026298352 0.04843963 0.012947 0.011508933
-0.014350001 -0.026729036 -0.025065798 -0.0035615002 -0.008226844 -0.014566436 -0.0041998266 -0.013902354
0.004042935 0.013145513 0.002188109 0.007587039 -0.0012040576 0.0024204142 -0.02291104 -0.0016138628
0.019175118 -0.013665588 -0.03425834 0.023350576 0.019467127 0.0017271547 0.02342984 -0.04105266
0.060658284 -0.032746855 0.00925282 -0.0018152168 0.01296407 -0.0007499309 -0.009043688 0.008735135
-0.014212807 0.009808776 -0.04546687 -0.002301899 -0.01797258 -0.002674716 0.020407876 0.033647593
0.0012313268 -0.0008687264 0.019781027 0.011565154 0.02459776 0.0048422855 0.020959709 -0.013994628
0.0068772477 0.02213118 -0.01350382 -0.029194795 -0.00078895566 0.0149685405 -0.014342735 0.008603599
-0.010686353 0.0007185975 0.004945708 0.03952551 0.0062980694 0.0073311757 0.014525633 0.028905805
0.0018911276 0.012365514 0.02025865 -0.014633978 0.030488266 -0.010479485 0.028136421 -0.021631993

weight f4 [128, 256]
00000000: 6d08 e4bd 3483 c93a d54b 303c eedd a4bd
00000010: a7c5 afbd ef75 dd3b 360b 9bbd 8ad8 fdbd
00000020: d952 12bd c1eb 7e3c 409d 63bd 2237 f1bd
00000030: db37 5bbd 8ad5 34bd 975b 65bd 2bca a7bd
00000040: 8ca3 91bd 97ff 7bbd 2a19 753d 5f44 56bc
00000050: bcc1 003d 83d8 d9bc d711 683d 9892 8ebd
00000060: c0f5 46bd 1cd9 d2bd 2258 24be 5715 5cbd
00000070: 39d5 f1bd 0650 0b3e eed5 2a3e d820 5dbc
00000080: 8258 29bd 48be 24bd 39cd ca3c 7b9b 22bc
00000090: d194 81bd ccd8 85bd 4e49 d03c f12a e23c
000000a0: 52ff 3fbd 4b8a 02be 7cbe aabc 35a2 7a3d
000000b0: aee3 16be 2dc8 b2bd 826b c5bd f490 cfbd
000000c0: fedd 8bbd 27bf 8dbd f376 98bd bef6 57bd
000000d0: 88ca 69bd ccab 733c 0d42 16be 13f1 4cbd
000000e0: 150e c0bd e195 8b3c 361a 4abd 3652 4e3d
000000f0: 279c a1bc c28c e9bd 62fc 24bd a23a 74bd
00000100: 294f f0bd f62a 2abc f92d 513c 5d5a cebc
00000110: 8d8f e83d ab28 523e 32b9 32ba 7cea d1bd
00000120: 62b3 bbbd 1207 22be 248b 4bbd f183 28be
00000130: 81c5 b9bd 3d80 7c3c 81e8 61bd 2acc ef3d
00000140: cb4a 77bd 5856 c5bb 3b69 33bd f969 9abd
00000150: 1fa1 f83d 680c 09be e5c4 a03d b635 a4bd
00000160: 0881 cebd b90b 80bd 2f82 64bd 200d afbd
00000170: 83f1 cabd b76b 343c e96d 0cbe 3b50 c3bd
00000180: f8f9 903c 47e8 67bd 7fa3 5fbd dfde 1fbb
00000190: 777a a7bd ca13 333d e57d f8bd bc7a d3bb
000001a0: faa2 88bd 8914 b0bd e193 46bd e49d d13d
000001b0: efff 01be 6dab 26bd 49e2 00be 09eb 66bd
000001c0: 3a66 373e 3b91 eeba 5c01 06be 04a6 bfbd
000001d0: 5aed a0bd 8fd8 b7bc e1b5 20bd 17f9 b7bd
000001e0: d361 363d 65a6 babc 5c5b 21bd 89f8 b63c
000001f0: 6c55 5cbd c457 2ebd 2a31 59bd 3249 1e3e
00000200: fa38 05be f87e 90bd d4c2 b0bd c148 96bd
00000210: fdc6 c6bc cc1b afbd eb1e 06be dcb7 c6bd
00000220: b977 78bd b0a4 9fbd fd72 88bd ae4c 1c3c
00000230: eac1 9b3c 7b91 17be 4533 79bd 9956 d2bd
00000240: 40aa 823c f51e 5cbd 6389 99bd 146a 92bd
00000250: b3d2 b03c ab57 22bb 2c25 8bbb b5d1 88bd
00000260: de1c 79bd e716 65bd 2117 93bd 1aff 2bbb
00000270: a8b4 80bd cb9d 89bd c445 28bd dc58 9ebd
00000280: 7f89 eebd a9a6 163e b9e7 78bd 89fc 25bd
00000290: 1f83 65bd 1718 3bbe a87e c0bd d8ea 4a3d
000002a0: f0ef 753c 2c5a 0b3e f86f cebd 78ad 74bd
000002b0: 74f0 8ebd 3c2f abbd 3204 2dbd e9f7 8ebd
000002c0: 1000 ec3a 54f8 993d 92f1 9c3d 7323 b0bb
000002d0: a699 14bd 236f d23d ebbf 9e3b 281a 6a3c
000002e0: 1113 4dbd 00d3 3bbd e255 b1bc 42c1 53bd
000002f0: f339 1fbd de81 2ebe ef10 f13a 7f25 e33b
00000300: ecec a1bd c65d 21bd d70e 2cbc e6a0 2ebd
00000310: f73f 1fbd 339d d8bc f219 2ebd 8d8f cebd
00000320: cf49 f2bd b60d 7ebd e1c8 a9bd cd92 8dbd
00000330: 6573 0dbd 3dcf 64bd 6cde 05be 7f76 d5bc
00000340: c412 1e3e 6f46 91bd 75e9 35bd 640d a1bc
00000350: 5add c6bd b702 2abd 82bc 153e e3e5 2cbd
00000360: 38bf 32bd f0bd f9bc 062e 4cbc 8dda 19bd
00000370: 87ed a0bc b98a 82bd ad8c febd f721 d7bd
00000380: 58b5 cfbd 5445 99bd d0a4 7abd 8943 633c
00000390: 4a56 6dbd db6f 41bd 8e0f 9b3d def4 ebbd
000003a0: 31e1 8cbd 1fcf e4bd a94d 94bc 5693 9bb9
000003b0: 74b3 90bd 0106 76bd 55d6 a6bc afaa 0a3e
000003c0: 3102 d83d fd09 c0bd 220f c33b b250 073e
000003d0: c2b3 9cbd 36bf a9bd 264b e4bc 832e 63bd
000003e0: f393 d3bd b813 30be 1d1e 31bc ce40 b5bd
000003f0: bb53 4dbd 8067 54bd 11c2 ab3c ae4c 14bd
-0.111344196 0.0015374185 0.010760267 -0.08050142 -0.08582621 0.0067584435 -0.07570498 -0.12394817
-0.03572354 0.015559138 -0.055569887 -0.11778094 -0.053520065 -0.04414896 -0.05599555 -0.08192857
-0.07111272 -0.061523046 0.05983845 -0.013077824 0.03143476 -0.026592499 0.05665764 -0.06961554
-0.04857421 -0.102953166 -0.16049245 -0.05373129 -0.11808247 0.13604745 0.1668317 -0.0134966
-0.041344173 -0.04022053 0.02475606 -0.009924765 -0.063272126 -0.06535491 0.02542558 0.027608367
-0.04687435 -0.12748067 -0.020842783 0.06118985 -0.1473529 -0.08729587 -0.09639646 -0.101350695
-0.06829451 -0.06921225 -0.07444563 -0.052725546 -0.057077914 0.014872503 -0.14673634 -0.050034594
-0.09377686 0.017039241 -0.049341403 0.05037137 -0.01972778 -0.114038005 -0.040279754 -0.05962623
-0.117338486 -0.010386219 0.012767308 -0.025189573 0.11355505 0.20523326 -0.00068177574 -0.102498025
-0.09165074 -0.1582301 -0.04969324 -0.16456582 -0.09070874 0.015411434 -0.055153374 0.11708863
-0.060374063 -0.006022256 -0.043801527 -0.07539744 0.121401064 -0.13383639 0.07850055 -0.08018057
-0.100832045 -0.06252236 -0.055788215 -0.08547425 -0.09909346 0.011012009 -0.13713802 -0.09536787
0.01769732 -0.056618 -0.05459928 -0.0024394316 -0.08177655 0.043720044 -0.121333875 -0.00645384
-0.0667171 -0.08597667 -0.048480872 0.10235193 -0.12695287 -0.040690828 -0.12586321 -0.05637649
0.1791009 -0.0018201241 -0.13086456 -0.09357837 -0.07857771 -0.02244213 -0.039235953 -0.08983057
0.044526886 -0.022784421 -0.039393768 0.022335308 -0.053792402 -0.04256417 -0.053025402 0.1545761
-0.13010016 -0.07055467 -0.086309105 -0.073380955 -0.024264807 -0.08550224 -0.13097732 -0.09703037
-0.06066105 -0.077950835 -0.06662557 0.009539766 0.019013364 -0.1480159 -0.06083991 -0.102704234
0.015950322 -0.05374046 -0.074969076 -0.07149139 0.021584844 -0.0024771492 -0.0042463746 -0.066806234
-0.060818546 -0.055930045 -0.07182146 -0.0026244582 -0.062844574 -0.0671955 -0.04108216 -0.07731792
-0.11647319 0.14712013 -0.060767863 -0.04052404 -0.05603325 -0.18270908 -0.09399158 0.04954037
0.015010819 0.13608617 -0.1007995 -0.059735745 -0.069794565 -0.083586186 -0.04224033 -0.06980879
0.001800539 0.07518068 0.076632634 -0.0053753196 -0.036279343 0.10275104 0.0048446557 0.014288463
-0.05006701 -0.045855522 -0.021647397 -0.051697977 -0.038873624 -0.17041728 0.0018391887 0.00693196
-0.079065174 -0.03939607 -0.010501585 -0.042633913 -0.03887936 -0.026442146 -0.042505212 -0.10085974
-0.11830484 -0.062024795 -0.08290268 -0.06912766 -0.034533877 -0.0558617 -0.13073128 -0.02605748
0.15436846 -0.07093512 -0.044412095 -0.019659705 -0.09710188 -0.041506495 0.14622691 -0.042211425
-0.04363939 -0.030486077 -0.012462145 -0.037561942 -0.019644512 -0.063741155 -0.124291755 -0.10504525
-0.101420105 -0.074839264 -0.061192334 0.013871082 -0.05794362 -0.047225814 0.07571326 -0.11521314
-0.06878889 -0.11172318 -0.018103437 -0.00029673678 -0.07065478 -0.06006432 -0.020365873 0.13541673
0.10547293 -0.09376905 0.0059527317 0.13214377 -0.076514736 -0.08288424 -0.027867865 -0.05546428
-0.103309534 -0.17195022 -0.010810402 -0.08850251 -0.05012868 -0.051856518 0.020966562 -0.03620594

bias f4 [128]
00000000: 1785 65bc ce2c ae3b a113 b83b f498 15bc
00000010: d120 50bc 2ed5 12bc 988f 80b9 6eeb 73bb
00000020: 65e4 0cbc f2d1 ecbc 27a0 203c 51c6 2e3c
00000030: 19cd 883c 57af fabb f954 fd38 189a 5a3b
00000040: c9b4 08bc 8874 70ba 4038 673b 8491 273a
00000050: 2d58 a63b 153d e1bc e03d 97ba df8c ee3b
00000060: 70cf 1abc 4b42 e33c b1e8 31bc 880a 07bd
00000070: c1b0 d3bb 8106 e7bb 964e b33a e30b c6bb
00000080: 1378 57ba 1558 0f3c 3a87 a4bb f995 54bb
00000090: 125c c3bb d0fa ef3b e5ac b7bb 89aa 5fbc
000000a0: 4abb dc3c 3560 263c 6666 983c 411b 6fbc
000000b0: 2677 4c3c eb8b d9bb 5c9a 393b 0fd1 1fbc
000000c0: 90e3 24bc 2e10 19bc bac1 a8bb 1a94 3cbc
000000d0: 9bfd 81bc a137 99bb 135f 843a b60d 1cbb
000000e0: a4f2 533c d78a 083c 448e 023a 8e7a 26ba
000000f0: 574e c43b bd7b 2ebb 0a7a f238 51c6 adbb
00000100: 0d89 c83c 41ea b1bb 588c 0abc 8fb3 a0bb
00000110: 3e7c 543b 9748 263c 4b5a 703b 2fb9 313c
00000120: 0fc5 e33b c249 99bb 515e 553c ca81 49bb
00000130: 2e5b 88bc 743a cf3a cffe 1d3b e155 b53a
00000140: eddb 5fbb ac33 35bc 4ec5 263c 20a7 9cbb
00000150: 96a9 13bc 1903 683b 4926 8ebb f158 323b
00000160: 0f66 e93c cdea 943b 50e6 37bb 1a1e 013b
00000170: 3bf8 853b 81ed 943c 4b95 3e3b 1bfb 383c
00000180: d42f 61bc 46a3 993c fe83 3dbc 77be 2cbb
00000190: 6869 5c3c a506 95bc 10fc e4bb 32f3 043c
000001a0: a565 b83b 594b 6f3b d53c 33b9 6896 2b3c
000001b0: 8956 9e3c 5339 a5bb 3cfa f73b 9d29 c23a
000001c0: ef9c 8a3c d7e7 cb3b bbfc ab3b c448 9b3b
000001d0: 839d 46bc f5dd 813c 1924 ccbc 3588 463c
000001e0: e0da c7bb a186 d1bc fd33 1b3b ccc6 3ebc
000001f0: 7ea2 13bc 2df5 ff3b e049 59bc 2e89 0abc
-0.014008782 0.0053153997 0.0056175743 -0.009130705 -0.012703137 -0.008961959 -0.00024521048 -0.0037219184
-0.008599375 -0.028908703 0.009803808 0.0106673995 0.01669936 -0.0076502967 0.000120798075 0.0033356007
-0.008343884 -0.0009172638 0.003528133 0.0006392228 0.0050764293 -0.027494946 -0.0011538826 0.0072799767
-0.009448871 0.027741572 -0.010858701 -0.032969028 -0.0064602797 -0.007050336 0.0013680037 -0.0060438975
-0.00082194916 0.008749028 -0.005021003 -0.0032438023 -0.0059619034 0.0073236004 -0.0056053274 -0.013651499
0.026944775 0.0101547735 0.018603515 -0.0145939 0.012479579 -0.006638994 0.0028320765 -0.009754433
-0.010064021 -0.009342236 -0.005150047 -0.01150992 -0.015867999 -0.004675821 0.0010099135 -0.0023811883
0.012936268 0.008333883 0.00049803057 -0.00063506595 0.005990784 -0.0026624047 0.00011562191 -0.005303182
0.024479413 -0.0054295366 -0.008456312 -0.0049042176 0.0032422687 0.010149143 0.0036674913 0.010847374
0.0069509814 -0.004677982 0.013022975 -0.0030747526 -0.01664504 0.0015810267 0.0024108177 0.0013834798
-0.0034158186 -0.011059683 0.010178877 -0.004780665 -0.0090126 0.0035402237 -0.00433806 0.0027213658
0.028491048 0.004544592 -0.002806086 0.001970178 0.0040884293 0.018179657 0.0029080685 0.011290337
-0.013744313 0.018754613 -0.011567114 -0.0026358643 0.013452865 -0.018191645 -0.006988056 0.008114623
0.0056273513 0.0036513417 -0.00017093432 0.010472871 0.019328373 -0.005042234 0.007567672 0.0014813427
0.016920535 0.006222706 0.0052486337 0.004738899 -0.012122515 0.015852908 -0.024919556 0.012117435
-0.00609909 -0.025576891 0.002368211 -0.011644077 -0.009010909 0.0078112097 -0.013262242 -0.008455558

weight f4 [64, 128]
00000000: 0a71 93bc bb37 7cbd 1037 283d a8b9 f9bc
00000010: 9a9b e5bd e235 86bc b718 bd3d 0315 283e
00000020: e367 73bd c860 4f3e c412 64bd 88b9 f8bd
00000030: e645 b0bd 9ba7 eabd 3b84 273e bccb 763d
00000040: 5dcb e1bc c5e3 2d3d 75a2 0f3e 8b05 b43d
00000050: 0e82 e7bd 256e 22bd 8337 5dbd 1b83 e8bc
00000060: 6281 3cbe 82a8 85bd f121 be3d 77d2 08bd
00000070: 7835 cebd b952 253d f4bf aa3d 9f4d 9cbd
00000080: f183 dc3a 89fa 21bd 3d38 a3bc 3393 dfbc
00000090: 791a 6ebd e249 f5bd 11c2 443d 0a99 06be
000000a0: 411c 80bd bca3 19be 6523 9e3d cf1a 90bd
000000b0: 5fd7 153e 768e 25be 3992 75bc 4b6d bfbd
000000c0: 6209 ddbd d769 123c fd49 40bd 7555 12bd
000000d0: 893e d9bc 2d0e 0dbe 4201 9cbc 3bf1 edbc
000000e0: 68f0 413c 08f0 0ebd 3f04 8ebd b22a bcbd
000000f0: 38b7 ff3d fbe8 8d3d da88 b8bd 8bfb 033e
00000100: e479 213e 6150 5fbd 2ccd 89bd e052 07be
00000110: 2f5d 0abe f787 abbd 2fe9 aebc dcc3 83bc
00000120: 57a2 6c3d 26b5 113e effd 82b9 7528 6fbd
00000130: 1815 90bc 1aa7 53bc 3e71 a13b 3c62 b53c
00000140: c6cb 76bd e759 103d 2fb4 b63d 544c 2dbd
00000150: 5fdc b13b 711c a4bd a6a1 14be fb9a 33bd
00000160: c2c6 92bd 2819 12be f67d 03be 2eb5 81bd
00000170: c897 abbc 1722 d73d 7d08 2dbd 0932 7ebc
00000180: 7f6b dcbd 15d5 453c f38f 28bd 70ee b1bd
00000190: 75d3 63bd c81a ecbc f7f7 233c 00ed 9c3d
000001a0: a74b 32bd 7f25 4abd 1229 7bbd d0a8 d2bd
000001b0: ace9 09be c36e 1bbd d4df 3abc 1aee b93d
000001c0: 45f8 f13c a4bb 0ebd 6bb6 34bd f628 b4bc
000001d0: d84a ad3d aa1a eebd 42c2 48be 3c77 25bc
000001e0: 748a d13d 13e3 ecbc fff5 a1bd b32b 1cbe
000001f0: bac2 fabc 9c6e 16be 2bd0 813d 3ec0 ebbb
00000200: f900 89bc c8ad abbd cfb0 a33c 9934 75bd
00000210: 14cb 36be fa6b 92bd b1fd 173e d4fa cebc
00000220: 9366 bbbc bc07 333e f4a7 b0bd ff90 24be
00000230: d8b7 c7bd 24d8 3ebe 81d7 ae3d f992 81bd
00000240: 4919 56bd 7947 c23c 3016 d53d 9fe8 fe3d
00000250: 12ed 1ebe 9f44 d4bc 3501 5ebd 436d 08bd
00000260: 887c 16be 17ee a8bd f2cb eb3d a23b 1fbc
00000270: 970a 8fbd 4060 5fbc 3ea5 aabc 2c7b 7cbd
00000280: bbfe ac3d 6a4a 53bd 9394 8abd 5f7c 46bd
00000290: d39b 21bd 77d8 a8bd 1eb2 f2bc b9ca 13be
000002a0: 9e6b f8bc d23b f0bd d6ee bf3d 589d aebd
000002b0: 5a3f 343c 55dd 22be 093b ffbc 7b6e 28be
000002c0: 36fe 0abe ac69 60bc 72b4 b5bc 899e 9fbb
000002d0: d333 9bbc 382c 0fbe 4b95 d8bc f19b 87bd
000002e0: b489 bc3d afe1 a2bd fad8 e2bc 337d 7dbd
000002f0: 980b 0d3e 63f6 ecbc fb5e c9bd 2c77 9b3d
00000300: eda1 763c ed74 5ebd 1616 0bbd 6fb5 31be
00000310: 8358 13be d678 8fbd 626e b0bc c747 ff3d
00000320: a298 cf3d 45bf 013e 61f0 aeba bd61 a0bd
00000330: 75ad 7dbd 5e3f dd3d 9143 903d 5e7c 773c
00000340: b885 8bbd cdbb 0abd e57c 023d cf12 12bc
00000350: ad07 acbc 4b3b 09be 7817 21be 79b0 1abd
00000360: 0612 4cbd d97f 30be 1557 7abd 734c debc
00000370: 1190 cdbc 35be d63c a4fe 69bc d792 fc3d
00000380: d4a5 00be d451 b73d 9ff5 f0bc 05bc 0dbe
00000390: 4bb7 66bd 510d dfbd 0f42 7a3c 38de 83bd
000003a0: b249 3ebd c8c7 c4bd 650d 98bd 2c0c c8bd
000003b0: 9978 fdbd 93ac d9bc c598 58bd b33f 9a3d
000003c0: cb0c 7f3d 708b 1bbe ed99 703d 32de 44bd
000003d0: b5c9 993d 418f 22be cfe3 8abd c18c afbc
000003e0: 8d89 b73d 5482 aebd ed41 cc3d 51ea 21be
000003f0: 3625 49bd 9b4f 0bbe 12e0 c93c 1681 243d
-0.017998237 -0.061576586 0.041068137 -0.030484036 -0.11211319 -0.016383115 0.092332296 0.16414265
-0.059425246 0.20251763 -0.05568196 -0.12144762 -0.08607082 -0.114577495 0.16359036 0.06025289
-0.027562791 0.042453546 0.14026816 0.0879012 -0.11304103 -0.039655823 -0.05400802 -0.028382828
-0.1840873 -0.06526281 0.092838176 -0.03340384 -0.10068792 0.040362094 0.083373934 -0.076319925
0.001682399 -0.03954557 -0.019924277 -0.02729187 -0.058130715 -0.11976983 0.04803664 -0.13144317
-0.06255389 -0.15003866 0.07721595 -0.07036363 0.14632939 -0.16167626 -0.0149884755 -0.09347018
-0.10792805 0.008936367 -0.04694556 -0.03572603 -0.026519077 -0.13774939 -0.019043569 -0.029045692
0.0118371025 -0.03489688 -0.06934404 -0.09187831 0.12486118 0.06929203 -0.09010477 0.12888925
0.15769154 -0.054520015 -0.067285866 -0.13215208 -0.13512109 -0.083755426 -0.021351425 -0.016084604
0.057772007 0.14229259 -0.00024984727 -0.058388192 -0.017588183 -0.012918258 0.0049268296 0.022141568
-0.060252927 0.035241988 0.08921086 -0.04230912 0.0054278816 -0.08013237 -0.14514789 -0.043848973
-0.07166816 -0.14267409 -0.12841019 -0.063333854 -0.020946398 0.10504549 -0.042244423 -0.015514859
-0.10762691 0.0120747285 -0.041152906 -0.086880565 -0.055621583 -0.028821364 0.01000785 0.07662392
-0.04352918 -0.049352165 -0.061318465 -0.10286105 -0.13468045 -0.037947427 -0.011405904 0.090786174
0.02953733 -0.034846917 -0.04411928 -0.021992188 0.08461541 -0.116261795 -0.19605353 -0.0100992285
0.10231486 -0.028916871 -0.07908248 -0.15251045 -0.030610431 -0.14690632 0.06338533 -0.007194548
-0.016724097 -0.083827555 0.01998177 -0.059864614 -0.17850906 -0.07149501 0.1484287 -0.025266089
-0.02287606 0.17483419 -0.086257845 -0.16070937 -0.09751862 -0.18637139 0.08537198 -0.06326861
-0.052270208 0.023715721 0.104046226 0.12446713 -0.15520123 -0.025911627 -0.05420037 -0.033307325
-0.14695942 -0.08248537 0.11513509 -0.009718807 -0.06984442 -0.013633788 -0.020830747 -0.061640903
0.084470235 -0.05158464 -0.067666195 -0.048458453 -0.039455246 -0.082444124 -0.029625949 -0.14432801
-0.030324753 -0.1173016 0.09371726 -0.08526105 0.011001432 -0.15904744 -0.03115608 -0.16448395
-0.13573536 -0.013697069 -0.02218077 -0.004871194 -0.01894561 -0.13981712 -0.026438376 -0.0662154
0.09205952 -0.07953202 -0.027691353 -0.061886977 0.13773954 -0.02892608 -0.09832569 0.075910896
0.015053255 -0.054310728 -0.03395661 -0.17354368 -0.14389233 -0.070054695 -0.02153701 0.12464862
0.10136534 0.1267062 -0.0013346785 -0.07831142 -0.061933 0.10803102 0.07044137 0.015105335
-0.06812614 -0.033870507 0.03185739 -0.008915617 -0.020999754 -0.13401525 -0.15731609 -0.037765954
-0.049821876 -0.1723627 -0.061118204 -0.027136063 -0.02509311 0.026213745 -0.014281902 0.12332695
-0.12563258 0.08951154 -0.029413996 -0.13841255 -0.056327146 -0.10891212 0.015274539 -0.06438869
-0.046457 -0.09608418 -0.0742443 -0.097679466 -0.12376518 -0.026571548 -0.052880067 0.07531681
0.06226806 -0.1518991 0.058740545 -0.048063464 0.07509176 -0.1587496 -0.06781732 -0.021429421
0.089617826 -0.08520952 0.09973512 -0.15812041 -0.049107753 -0.13604586 0.024642978 0.04016217

bias f4 [64]
00000000: 0f7a 063c 63b5 f13c 451f a93c 7cc9 f43c
00000010: cd22 0a3c 54fa 2dbd 5bdb c5bb 6d2c 03bb
00000020: a52c 8739 583c 343d 69ab edbc 84f2 fb3a
00000030: ab9d 64bd 604e a33c 9358 cd3b 092b 10bd
00000040: 8c90 2e3d 898f c43b 0dd6 aebc 4e29 93bc
00000050: dfea 5ebc 3922 dfbb 0eae 93bb 74a5 f13c
00000060: 0802 a7bc 083f 2dbb 78b6 a93d e5a5 5a3d
00000070: 3dfe 633d 8051 ac3b e478 fcbc 0440 cfbc
00000080: a26c b8bc 36ea afbc 0eb5 42bd 36b9 c2ba
00000090: a94c 293d 0592 d83c 27ee 913c 7451 413c
000000a0: 9d44 f3bc bd9f 883b 86d4 ae3c 64b6 06bd
000000b0: 7eea 053c 289e 0bbd 73b9 223d 85c8 2abd
000000c0: 1af8 1d3b 739b 5b3d 92fd 673d a775 813c
000000d0: acf7 91bc 428e ebbc d3cc 75bc 1385 bf3c
000000e0: 70ef abbc f1f5 91bb 202a ecbc 4a88 47bc
000000f0: 7442 d7bc 0582 e8bb 10b5 58bd 0c4b a9bb
0.008207812 0.029505437 0.020644793 0.029881231 0.008431149 -0.04247506 -0.006038112 -0.0020015494
0.0002578247 0.04400286 -0.029012399 0.0019222056 -0.055814426 0.019934833 0.0062666624 -0.03519729
0.04261832 0.005998556 -0.021342302 -0.017964032 -0.013605802 -0.0068094996 -0.004506833 0.02949784
-0.02038671 -0.0026435275 0.08286756 0.053380866 0.055662382 0.005258739 -0.030819364 -0.02529908
-0.022512738 -0.021473985 -0.04753595 -0.0014856223 0.041332874 0.026436815 0.017813755 0.011799205
-0.029695803 0.004169433 0.021341573 -0.032888785 0.008173583 -0.034086376 0.03972764 -0.041695137
0.002410418 0.053615045 0.056638308 0.015803171 -0.017818294 -0.028754357 -0.015002447 0.023378884
-0.020988196 -0.0044543673 -0.02882868 -0.01217849 -0.026276805 -0.0070955777 -0.05290705 -0.005166417

weight f4 [64]
00000000: 14fe 6a3f 9ad5 603f f882 7a3f c031 6c3f
00000010: 9071 5a3f b351 603f 1d9f 843f 6983 783f
00000020: 4b91 743f ea56 813f 040d 6b3f 04df 723f
00000030: c216 5b3f 2f4b 883f b804 513f 3044 713f
00000040: 4a96 6f3f 3961 4f3f 2e04 7e3f 0cbd 633f
00000050: 7371 803f c1f4 793f 81cd 773f 25ac 413f
00000060: 406b 823f 3e52 8b3f 514b 733f 79a6 563f
00000070: e1bf 6b3f 455c 683f 8378 743f 9a91 693f
00000080: 5482 793f aa68 593f 27a0 703f 5e2c 703f
00000090: 4cdf 673f 937f 6a3f ae8c 6f3f a310 793f
000000a0: ba9f 653f 802f 763f 0aee 653f 99b3 693f
000000b0: 139c 643f 94e0 693f 2540 6a3f 0d23 873f
000000c0: 8f99 753f 888e 723f 1f52 833f 4024 5e3f
000000d0: d95f 803f a910 673f 05f0 673f e555 6f3f
000000e0: ebb4 6a3f ed28 343f ad1d 713f 444e 7c3f
000000f0: 6b78 683f 37cb 6c3f 1893 6e3f 59b6 5c3f
0.9179394 0.8782593 0.9785609 0.9226341 0.8532953 0.87624663 1.0361058 0.97075516
0.955342 1.0104649 0.91816735 0.94871545 0.855816 1.0647944 0.81647825 0.9424467
0.935887 0.81007725 0.9922513 0.8896034 1.0034622 0.9763909 0.9679795 0.75653297
1.018898 1.0884473 0.950368 0.8384777 0.9208966 0.9076579 0.95496386 0.91237795
0.9746449 0.8492533 0.93994373 0.938177 0.905751 0.9160091 0.93574035 0.9729101
0.8969685 0.9616623 0.89816344 0.9128967 0.8930065 0.91358304 0.91504127 1.0557572
0.95937437 0.94748735 1.0259436 0.86774063 1.002925 0.90259796 0.90600616 0.9349044
0.9168231 0.7037495 0.94185907 0.98556924 0.90808743 0.9249758 0.931932 0.8621574
